contrast_guided_cnn/saved_models/uae_net_epoch_10.pth (torch, 65854 bytes, 22 tensors)

conv1.weight f4 [32, 3, 3, 3]
0	0x3e3437d9	0.17599429
1	0xbe1b47ba	-0.1516408
2	0xbc90ea2b	-0.017689785
3	0xbe03f2da	-0.1288561
4	0x3e48477b	0.19558518
5	0x3c4d5eec	0.012534838
6	0x3d8cc50c	0.06873521
7	0x3e41227b	0.1886081
8	0x3d14aec8	0.036299497
9	0xbd2a64bb	-0.04159997
10	0xbd8d1209	-0.068882056
11	0x3e083d3b	0.13304608
12	0xbe0be51a	-0.13661614
13	0xbe2871a2	-0.16449597
14	0x3cd602ba	0.026124347
15	0xbe43e897	-0.19131695
16	0x3de138b6	0.10997145
17	0x3d09ee42	0.033674486
18	0xbd7db1b3	-0.061937045
19	0xbdae7742	-0.085188404
20	0xbda72d74	-0.08162966
21	0xbd46613f	-0.048432585
22	0x3c89f2b2	0.016839359
23	0xbe1cd5a5	-0.15315874
24	0xbc258985	-0.010103588
25	0x3e3b5446	0.18293867
26	0x3da8b741	0.08238078
27	0x3e05683c	0.13028044
28	0xbe416cb0	-0.18889117
29	0x3de4036d	0.11133466
30	0x3e1741e1	0.14771225
31	0xbdc83374	-0.09775439
32	0xbc2f25a0	-0.010690123
33	0x3e27aa50	0.16373563
34	0xbdad5969	-0.08464319
35	0x3e05f854	0.13083011
36	0xbd97a759	-0.07404966
37	0xbdf61d1e	-0.120172724
38	0xbe2244db	-0.15846579
39	0xbd358cff	-0.044323917
40	0x3e362d7a	0.17790785
41	0xbdc67abe	-0.0969138
42	0xbe1746b0	-0.14773059
43	0x3e45e547	0.19325744
44	0x3e1b9449	0.15193285
45	0xbde125ac	-0.109935135
46	0xbd08f09f	-0.0334326
47	0xbc73ea6b	-0.014887433
48	0xbdc6a70f	-0.09699833
49	0x3db250e3	0.08706834
50	0x3e1abcd4	0.15111095
51	0xbdc89439	-0.09793896
52	0x3de47450	0.11154997
53	0x3e109e01	0.14122774
54	0xbe306fc1	-0.1723013
55	0x3e3bad4c	0.18327826
56	0x3d5e3f9d	0.054259885
57	0xbd57c685	-0.052679557
58	0xbe026af3	-0.1273611
59	0x3cd9ae5e	0.026572403
60	0x3e0be767	0.13662492
61	0xbdd00eca	-0.10159071
62	0x3e1991e1	0.14997055
63	0xbe19cf56	-0.15020499
64	0xbd81722c	-0.06320605
65	0x3e23c154	0.15991718
66	0xbdaeab54	-0.08528772
67	0x3d4b3f20	0.049620748
68	0xbe179521	-0.14802982
69	0xbcf5a5e3	-0.029986328
70	0x3e095106	0.13409814
71	0x3d0b8a8d	0.03406768
72	0x3c456388	0.012047656
73	0x3d286328	0.041110188
74	0xbe37ce38	-0.1794976
75	0xbda17d9f	-0.078852884
76	0x3e3344ed	0.17506762
77	0x3e35cf8a	0.17754951
78	0x3de06e0c	0.1095849
79	0x3e3db70c	0.18526858
80	0x3dca9b13	0.09892859
81	0x3de73331	0.11289061
82	0xbd39874d	-0.04529505
83	0x3e2e4260	0.17017508
84	0xbe000a7e	-0.12504002
85	0x3e1ca7f5	0.15298446
86	0x3e0dcd58	0.13847864
87	0x3e240c91	0.16020419
88	0xbc9ea959	-0.01936786
89	0x3e26aae3	0.16276126
90	0xbe3ce440	-0.18446445
91	0x3db4f021	0.088348635
92	0x3dc6ad6c	0.09701046
93	0x3e3bbdf7	0.18334185
94	0x3c4b2cd5	0.0124008255
95	0x3d944fe4	0.072418004
96	0x3d826edf	0.06368803
97	0xbd5d8512	-0.054081984
98	0x3e1abb3d	0.15110488
99	0xbe0739a7	-0.13205586
100	0x3da16b98	0.0788185
101	0x3cd3d192	0.025856767
102	0x3d8dd3ea	0.06925185
103	0x3d7e7e85	0.062132377
104	0x3db09b20	0.08623338
105	0xbd4ee529	-0.050511513
106	0x3d548675	0.05188604
107	0xbe351092	-0.17682102
108	0xbde1a029	-0.11016876
109	0x3b7ea664	0.00388565
110	0xbb9e59ab	-0.0048324666
111	0xbe40b32a	-0.18818346
112	0xbbacb22b	-0.0052702627
113	0xbdc2eed9	-0.09518213
114	0xbe2279a9	-0.15866722
115	0xbdf5eb59	-0.1200778
116	0xbe305f12	-0.17223766
117	0x3d6b7eb4	0.05749388
118	0xbe28ae09	-0.16472639
119	0x3e130c3b	0.14360134
120	0xbde959f9	-0.11394114
121	0x3e181f82	0.1485577
122	0xbd59b9a8	-0.05315557
123	0xbd065d0a	-0.032803573
124	0x3e30f332	0.17280272
125	0xbdfb4a18	-0.12269992
126	0xbb9109ac	-0.004426202
127	0xbe20f7bd	-0.15719505
128	0x3c9c59da	0.019085813
129	0x3cb80b02	0.022466186
130	0x3db707f2	0.08937062
131	0x3e375a09	0.1790544
132	0x3cfa7bf8	0.030576691
133	0x3cc3e1ea	0.023911435
134	0xbe3806a6	-0.17971286
135	0xbe0b54e5	-0.13606603
136	0x3cc44248	0.023957387
137	0x3e1f27c8	0.15542519
138	0x3bdfa75b	0.0068253702
139	0xbd746e45	-0.059675474
140	0x3bcaf46f	0.0061936895
141	0x3a8fece1	0.001098063
142	0xbdd2d136	-0.1029381
143	0xbe4c48ce	-0.19949648
144	0xbd1e2135	-0.038605887
145	0xbde3c0ad	-0.11120734
146	0xbd1d3b3d	-0.038386572
147	0x3d2cb5fc	0.04216574
148	0x3c1e3928	0.009657182
149	0xbd905468	-0.07047349
150	0x3dc1c3ba	0.0946116
151	0x3dc82882	0.09773351
152	0x3de73a21	0.11290384
153	0x3e138018	0.14404333
154	0xbc952c92	-0.01820973
155	0xbdab10d6	-0.083528206
156	0xbda13101	-0.07870675
157	0x3ceed3f4	0.029153802
158	0x3dd72dc6	0.105067775
159	0xbe487594	-0.19576102
160	0x3cdeb7ca	0.027187247
161	0x3e3db8dc	0.1852755
162	0x3df8b21a	0.12143345
163	0x3dce79fe	0.10081862
164	0xbe208f9d	-0.15679784
165	0xbd42ca7b	-0.04755638
166	0xbcfc29d1	-0.030781658
167	0xbe2fd207	-0.17169963
168	0xbdccff8b	-0.100096785
169	0xbe2d5042	-0.16925147
170	0x3d07bab7	0.03313705
171	0xbe0c5c30	-0.13707042
172	0xbd6953f2	-0.056964822
173	0xbdd261d2	-0.10272564
174	0xbe211c02	-0.1573334
175	0x3dcbe7b2	0.09956302
176	0xbe00b09b	-0.1256737
177	0xbd407103	-0.046982776
178	0x3e2f8349	0.17139925
179	0xbe2f6762	-0.17129281
180	0x3d0a7df8	0.03381154
181	0xbd869fa2	-0.06573416
182	0xbd591566	-0.052998923
183	0xbd24ead2	-0.040263005
184	0x3dacb699	0.08433265
185	0xbdcf4225	-0.10120038
186	0xbe3d9723	-0.18514685
187	0x3c2e7906	0.010648971
188	0xbdb71dfa	-0.089412645
189	0x3d9a5d29	0.075373
190	0xbc273248	-0.010204859
191	0x3dfcd2aa	0.123448685
192	0x3dadcc75	0.08486263
193	0xbc3910e9	-0.011295536
194	0x3d4ecb6b	0.050486963
195	0xbe0b0bb9	-0.1357869
196	0x3e04f5a9	0.12984337
197	0x3e2048ba	0.15652743
198	0x3e038937	0.12845312
199	0xbddb5cc1	-0.10711051
200	0x3d9647e7	0.07337933
201	0xbcf3e68d	-0.029773021
202	0xbdf7933f	-0.12088632
203	0xbd886d80	-0.066615105
204	0xbd594651	-0.053045575
205	0x3e2af30e	0.1669428
206	0xbdf8a0c5	-0.12140039
207	0x3e1c9a16	0.15293154
208	0xbde47ebe	-0.11156987
209	0x3c9e7df5	0.01934717
210	0xbdeb1f8b	-0.11480626
211	0x3c2cc40e	0.01054479
212	0xbe3e6397	-0.18592678
213	0x3cb287fe	0.021793362
214	0x3e1ab4f7	0.15108095
215	0x3de57159	0.1120326
216	0xbdfc721f	-0.12326454
217	0x3e385ae2	0.18003419
218	0xbdd8e58e	-0.10590659
219	0xbd38ce00	-0.045118332
220	0xbe4a24af	-0.19740556
221	0xbda520f6	-0.080629274
222	0x3e37ed43	0.17961602
223	0x3bbffa44	0.0058586914
224	0xbe1ca18d	-0.15296002
225	0xbce657dd	-0.028118068
226	0xbd39cd1a	-0.045361616
227	0xbc794f6e	-0.015216691
228	0xbe36d832	-0.1785591
229	0x3e05583a	0.13021937
230	0x3db893bf	0.09012555
231	0xbe130e84	-0.14361006
232	0xbe283f9a	-0.16430512
233	0x3e17965d	0.14803453
234	0xbdd85f66	-0.10565071
235	0x3daf5668	0.085614026
236	0x3d813f62	0.063109174
237	0x3e0c9f17	0.13732563
238	0xbd4c118a	-0.049821414
239	0x3e257d8e	0.16161177
240	0xbd61dd8e	-0.05514293
241	0xbc308026	-0.0107727405
242	0xbc0409cd	-0.008058977
243	0x3d98473a	0.074354604
244	0xbda1bc08	-0.07897192
245	0x3dfd8508	0.12378889
246	0x3d5de109	0.05416969
247	0x3e23ea6a	0.1600739
248	0x3e3012b7	0.17194639
249	0xbda51bb6	-0.08061926
250	0xbdc7e143	-0.09759762
251	0x3d448556	0.04797872
252	0x3e26fb5e	0.16306826
253	0xbdf7dcdb	-0.12102672
254	0xbe1ad098	-0.15118635
255	0x3d653304	0.055956855

conv1.bias f4 [32]
0	0x3e046e98	0.12932813
1	0x3db944eb	0.09046348
2	0xbdb3fa5e	-0.08787988
3	0x3ddb9df8	0.107234895
4	0x3d0af97c	0.033929333
5	0xbe0735a8	-0.13204062
6	0x3ddb9e6a	0.107235745
7	0xbdc682a4	-0.096928865
8	0xbcc4ae6f	-0.024008958
9	0x3cb44a63	0.022008127
10	0xbda0c4d3	-0.07850041
11	0x3ceb6894	0.02873639
12	0xbdf681ed	-0.120365
13	0x3cc2d7be	0.023784515
14	0x3dffb28d	0.12485228
15	0x3d3241ef	0.04351991
16	0xbe1a1292	-0.15046147
17	0xbd625e88	-0.055265933
18	0x3d8f57f1	0.06999195
19	0x3dc34a61	0.09535671
20	0x3e0e793e	0.13913438
21	0xbdf7be37	-0.120968275
22	0xbdd6bea2	-0.10485579
23	0x3e465fd2	0.1937249
24	0x3e2fcba9	0.17167534
25	0x3d4544ed	0.048161436
26	0xbcc0833d	-0.02350008
27	0xbe15b7b3	-0.14620857
28	0x3dfe0475	0.12403194
29	0xbd3b0177	-0.045655694
30	0x3e1b5746	0.15170011
31	0x3e2deb35	0.16984256

conv2.weight f4 [32, 32, 3, 3]
0	0x3d881a06	0.066455886
1	0x3cc50138	0.024048433
2	0xbc9b3213	-0.018944776
3	0x3d89b573	0.06724062
4	0x3b1861bc	0.0023251614
5	0x3d668a38	0.05628416
6	0x3d2dee52	0.042463608
7	0x3d6ef2b0	0.058336914
8	0x3d8c0497	0.06836813
9	0x3d71fcb7	0.0590789
10	0xbc677f97	-0.014129541
11	0xbd0a3994	-0.033746317
12	0xbbc40928	-0.005982537
13	0xbc80bde2	-0.015715543
14	0x3d266477	0.040623154
15	0x3c1f51f8	0.009724133
16	0x3c78929f	0.015171676
17	0xbcc97e3e	-0.02459633
18	0xbc88c0d0	-0.016693503
19	0xbd03767b	-0.032095414
20	0x3d33b79b	0.04387627
21	0xbc84f30f	-0.01622918
22	0x3a193ec1	0.0005845838
23	0x3d059d7d	0.032620896
24	0xbd1e997e	-0.0387206
25	0xbd1d1b33	-0.038356017
26	0x3d2d24ae	0.04227131
27	0xbd4ee91c	-0.05051528
28	0x3c6ae001	0.014335633
29	0x3c4f23cc	0.012642812
30	0x3cf94188	0.030426756
31	0x3d06e56d	0.03293364
32	0xbd415f8b	-0.047210258
33	0x3d312b9e	0.043254487
34	0x3a4b75b4	0.00077613746
35	0xbd4d06c7	-0.05005529
36	0x3cc9e188	0.024643674
37	0x3d448deb	0.047986906
38	0xbd48a751	-0.04898769
39	0x3c9e4f44	0.019324906
40	0xbc74f629	-0.014951267
41	0xbbce7255	-0.0063002505
42	0x3d17c282	0.03705073
43	0x3d0c367e	0.034231655
44	0x3bca46d1	0.0061729928
45	0xbca85af7	-0.020551188
46	0xbd0f34fe	-0.034962647
47	0xbc36a0b9	-0.011146718
48	0xbd8699a2	-0.06572272
49	0xbd7dc403	-0.06195451
50	0x3c38b5a1	0.011273772
51	0x3cf4012c	0.029785715
52	0xbd7c5ab8	-0.061609954
53	0xbd8928b8	-0.066972196
54	0xbd485438	-0.048908442
55	0x3d385d70	0.045010984
56	0x3d2a9ffc	0.04165648
57	0xbca3ac7e	-0.019979712
58	0xbc82cd78	-0.015967116
59	0x3d180630	0.037115276
60	0xbd0bb4c7	-0.03410795
61	0xbd010fe8	-0.03150931
62	0x3d03b503	0.032155048
63	0xbd00f2b3	-0.031481456
64	0xbd1a03cf	-0.03760129
65	0xbd6da9a8	-0.058023125
66	0x3b265ff2	0.0025386778
67	0xbca9a347	-0.02070774
68	0x3b922ae8	0.004460681
69	0xbd1b4cc9	-0.037915025
70	0x3d0c3f75	0.034240205
71	0xbad6c4bf	-0.0016385539
72	0xbd379316	-0.044818006
73	0x3d145be8	0.03622046
74	0x3cf279b1	0.029599043
75	0x3b8fa372	0.004383498
76	0x3ce68d1c	0.028143458
77	0xbcc2247d	-0.02369904
78	0xbd192f74	-0.03739877
79	0x3c66ac39	0.014079147
80	0x3ce6aa44	0.02815736
81	0xbcecd26d	-0.028908933
82	0x3cf97638	0.030451879
83	0xbce0ba70	-0.02743265
84	0xbd6d2d73	-0.057904672
85	0x3d05c1bf	0.032655474
86	0xbd4070b7	-0.046982493
87	0xbc8e6376	-0.017381411
88	0xbd32bb55	-0.043635685
89	0xbd660c56	-0.05616411
90	0x3bef3f9b	0.0073012835
91	0x3bc7478f	0.0060815285
92	0x3ba9250f	0.0051618884
93	0x3d4d77f8	0.05016324
94	0xbc041da9	-0.008063712
95	0x3d0a6190	0.03378445
96	0x3c9d9642	0.019236688
97	0xbd86e713	-0.06587043
98	0xbc8f3006	-0.017478954
99	0xbcbd3dd2	-0.023100767
100	0xbd4879c6	-0.048944257
101	0xbd1777df	-0.036979552
102	0x3cc40757	0.023929281
103	0xbc521904	-0.012823347
104	0xba735c79	-0.0009283494
105	0xba83ff39	-0.0010070569
106	0x3a732598	0.0009275316
107	0xbd141e09	-0.036161456
108	0x3c8c0a69	0.017094808
109	0xbd791ca9	-0.060818348
110	0xbd663f29	-0.056212578
111	0xbd3e8465	-0.04651298
112	0x3d2bf13b	0.041978102
113	0xbd4d0653	-0.05005486
114	0xbd33b1e9	-0.04387084
115	0xbca3c6dd	-0.019992286
116	0x3adbb117	0.0016761151
117	0xbb7179a7	-0.0036846192
118	0x3c681d53	0.014167148
119	0xbc6490ab	-0.013950507
120	0x3d9ba83e	0.07600449
121	0x3d7db134	0.061936572
122	0x3b9c3383	0.004766883
123	0x3cb5f047	0.0222093
124	0xba199743	-0.00058590266
125	0x3d36d50f	0.044636782
126	0x3cdffca3	0.027342146
127	0x3d6f7aad	0.058466602
128	0xbd445c6d	-0.047939707
129	0x3cbcd3bb	0.02305018
130	0xbcfb2fff	-0.030662535
131	0x3d13a2f1	0.036044065
132	0x3c58146a	0.013188461
133	0xbd3fdf83	-0.046844017
134	0x3d07b76f	0.03313392
135	0x3c286639	0.010278278
136	0xbd45f1b1	-0.048326198
137	0x3d1ce446	0.038303636
138	0x3d290ed0	0.041273892
139	0x3bba222c	0.005680343
140	0x3d284e84	0.041090503
141	0xbd2a0ec7	-0.041518
142	0x3c3b34a9	0.011426129
143	0xbc4035da	-0.011731589
144	0x3d2ebc7b	0.042660218
145	0x3c53b5d3	0.012921768
146	0xbd3e209e	-0.046417825
147	0xbd7e10b1	-0.062027637
148	0xbd8c3fb8	-0.06848091
149	0x3c941aa0	0.018079102
150	0xbc2e7175	-0.010647167
151	0xbd4be4fc	-0.049778923
152	0xbd0b1ad1	-0.03396112
153	0xbc7ef4b7	-0.015561274
154	0xbd1bd88c	-0.038048312
155	0xbcb8df71	-0.022567483
156	0xbcc0de16	-0.023543399
157	0xbba6fe14	-0.0050962064
158	0xbd39e83e	-0.0453875
159	0xbc2b5c7f	-0.0104590645
160	0x3d5e64cc	0.054295346
161	0x3c1f227f	0.009712814
162	0xbc490782	-0.012269856
163	0x3d5f8673	0.05457158
164	0x3d3dae15	0.046308596
165	0xbc9ccb13	-0.019139802
166	0x3cf32f00	0.029685497
167	0x3d46fbda	0.048580028
168	0x3d8427a2	0.06452872
169	0x3d41cc0b	0.04731373
170	0xbd41bee4	-0.047301188
171	0x3d0027d7	0.031287994
172	0xbcdb6f9a	-0.026786614
173	0x3d1eb557	0.038747158
174	0x3d4c7a8f	0.04992157
175	0xbd4b7e86	-0.04968121
176	0x3d43a548	0.047765046
177	0x3c7b7130	0.01534681
178	0xbd2089c2	-0.039193876
179	0x3c5ddc17	0.013541243
180	0x3d7f648c	0.06235175
181	0xbca59563	-0.020212835
182	0x3d73d640	0.059530497
183	0x3ca95e19	0.020674752
184	0xbccea209	-0.025223749
185	0x3d4dd607	0.05025294
186	0xba56cdb4	-0.00081941043
187	0x3d509af2	0.050929017
188	0xbd042756	-0.032264076
189	0xbd7a364a	-0.06108693
190	0xbd851e31	-0.06499899
191	0xbccc36c2	-0.024928454
192	0xbd4937ac	-0.04912536
193	0xbd73f373	-0.059558343
194	0xbd57487e	-0.05255937
195	0xbc3237b6	-0.01087754
196	0x3cf60287	0.030030502
197	0x3d09dd3a	0.033658244
198	0xbb0f9c77	-0.0021913329
199	0x3d5b557f	0.053548332
200	0x3c7cd332	0.015431212
201	0xbc939513	-0.01801542
202	0xbd4c23ad	-0.04983871
203	0xbd1d2bed	-0.03837197
204	0x3d0231b6	0.03178569
205	0xbd43b2a3	-0.047777783
206	0x3b9ff204	0.0048811454
207	0x3d8e33bb	0.069434606
208	0xbd028475	-0.031864602
209	0x3cd7dfc4	0.026351817
210	0x3d666bb8	0.056255072
211	0x3d81b416	0.06333177
212	0xbd0c9bee	-0.034328394
213	0x3c0a7f12	0.0084531475
214	0x3d07c79c	0.033149347
215	0x3d88bceb	0.06676658
216	0xbc3c3873	-0.011488068
217	0xbc7416d0	-0.014898017
218	0x3d36176f	0.04445594
219	0x3d493a7e	0.049128048
220	0x3d7b31d1	0.061326806
221	0xbbcbb503	-0.0062166466
222	0xbd3d1d91	-0.046170775
223	0x3bc9cf64	0.006158756
224	0xbb86e31d	-0.0041164295
225	0xb8a4f472	-7.865661e-05
226	0xbd25ae0e	-0.040449195
227	0xbcea3708	-0.028590694
228	0x3cc73aaa	0.024319965
229	0xbcbfbea3	-0.023406332
230	0x3b489a90	0.0030609705
231	0x3d6ce1a5	0.05783238
232	0xbaba34d4	-0.0014206418
233	0xbd40bf19	-0.047057245
234	0xbd5b5eb2	-0.053557105
235	0xbd47b7cd	-0.04875927
236	0xbb916527	-0.004437107
237	0xbc035c4a	-0.008017609
238	0x3d50a399	0.05093727
239	0xbcd8d131	-0.026466938
240	0x3c4dc158	0.012558304
241	0xbccb4fb1	-0.024818273
242	0xbd482780	-0.048865795
243	0xbd2cf888	-0.042229205
244	0x3d4dca86	0.05024197
245	0xbce0688b	-0.0273936
246	0xbcb68159	-0.022278475
247	0x3c95cc7b	0.01828598
248	0xbcac3199	-0.021019744
249	0xbbd1d86c	-0.0064039733
250	0xbd7cf3bb	-0.061755877
251	0xbd8236ce	-0.063581094
252	0x3d284fae	0.041091613
253	0x3d5c58b4	0.05379553
254	0xbca5d647	-0.020243777
255	0xbcdc5242	-0.026894692

conv2.bias f4 [32]
0	0x3d7ce3ec	0.0617408
1	0x3cc9bf67	0.0246274
2	0x3c7410ac	0.014896553
3	0xbd5d56bc	-0.054037794
4	0x3cea2611	0.028582605
5	0xbd299cea	-0.04140941
6	0xbc02ef6e	-0.007991655
7	0xbd5d55b2	-0.054036804
8	0x3d3379f7	0.043817487
9	0xbc4b3564	-0.012402866
10	0xbbe2136e	-0.006899289
11	0x3ca54623	0.020175045
12	0xbcc6d3ac	-0.024270855
13	0x3ce7d861	0.02830142
14	0xbd2e3f52	-0.042540856
15	0x3b87f204	0.0041487236
16	0xbcbde8ba	-0.023182262
17	0x3d37e73a	0.04489825
18	0xbc7cd19d	-0.015430835
19	0x3d158f00	0.03651333
20	0x3c7f7014	0.015590686
21	0x3c1d105a	0.009586418
22	0x3c78f2ea	0.015194634
23	0x3cf88f00	0.030341625
24	0xbd496ed8	-0.049177974
25	0x3ba990f4	0.0051747505
26	0xbccb5119	-0.024818944
27	0x3d41f543	0.04735304
28	0x3b7daea9	0.0038708842
29	0x3c263d94	0.010146517
30	0x3c81d543	0.015848761
31	0xbd05bef9	-0.03265283

conv3.weight f4 [32, 32, 1, 1]
0	0xbe1b27eb	-0.15151946
1	0x3a501a77	0.0007938514
2	0xbdc903f3	-0.098152064
3	0x3dfc0f5a	0.123076156
4	0x3e2cdfb0	0.16882205
5	0x3de03116	0.109468624
6	0xbd8d240e	-0.068916425
7	0x3c82b9b2	0.015957687
8	0x3d338668	0.04382935
9	0x3cfd120f	0.0308924
10	0xbdf837a9	-0.12119991
11	0xbc24386f	-0.01002322
12	0x3d94a28a	0.07257564
13	0x3d962d92	0.073329106
14	0x3d5dff03	0.054198276
15	0x3e105deb	0.14098327
16	0x3e2f1239	0.17096795
17	0xbdd07216	-0.1017801
18	0xbdd9e158	-0.10638684
19	0xbbe2e16e	-0.006923846
20	0xbd9c3bbe	-0.076285824
21	0xbe10a967	-0.14127122
22	0xbe1caffa	-0.15301505
23	0xbd1347b5	-0.035957057
24	0x3cd5ac26	0.026083063
25	0xbe468b46	-0.19389066
26	0x3dc302f1	0.095220454
27	0xb8b1114b	-8.443239e-05
28	0xbdcb2403	-0.09918978
29	0xbd613cce	-0.05498963
30	0x3deb8c69	0.115013905
31	0xbe24cb8c	-0.16093272
32	0x3ddd2614	0.107982785
33	0x3d1cf5a4	0.0383202
34	0x3c17d0a9	0.009266057
35	0xbd84649f	-0.064645045
36	0x3d4e10ac	0.05030887
37	0x3d960b1a	0.07326336
38	0xbe213614	-0.15743285
39	0x3dd25293	0.10269656
40	0x3da232d1	0.07919849
41	0xbe1d7d49	-0.15379824
42	0xbe244866	-0.16043243
43	0x3da2541a	0.07926197
44	0xbe2b5da5	-0.16734941
45	0xbe2c74e0	-0.1684146
46	0x3d582323	0.052767884
47	0xbdd1db56	-0.10246913
48	0xbcfc90ab	-0.030830702
49	0x3d9ef95a	0.07762404
50	0x3ddd2a8c	0.10799131
51	0x3d95f002	0.073211685
52	0xbe016198	-0.12634885
53	0xbcd3e5c1	-0.025866391
54	0xbbcf9e07	-0.006335977
55	0x3e3c0c68	0.18364108
56	0xbe19d35f	-0.15022038
57	0xbddc394b	-0.10753115
58	0x3e068403	0.13136296
59	0x3d35b970	0.0443663
60	0xbe1e376f	-0.15450834
61	0x3d6420cc	0.05569534
62	0xbdfe1518	-0.12406367
63	0xbd6caca0	-0.057781816
64	0xbd28e5fa	-0.041234948
65	0xbd168bb4	-0.036754325
66	0xbdb6ca20	-0.08925271
67	0x3da20ec1	0.0791297
68	0x3d33a11c	0.043854818
69	0xbe174149	-0.14770998
70	0xbdf08ca7	-0.11745577
71	0x3c9bbbd8	0.01901047
72	0xbc46662e	-0.0121093225
73	0xbde22d43	-0.11043789
74	0x3dc8e98b	0.0981017
75	0x3d238613	0.039922785
76	0x3e01e603	0.12685399
77	0xbdda3701	-0.106550224
78	0xbd9f149c	-0.07767603
79	0xbe397e2a	-0.18114534
80	0x3dee5ff5	0.11639396
81	0x3c35219f	0.011055379
82	0x3daa5139	0.08316273
83	0xbdc8d4f1	-0.0980624
84	0x3e379df7	0.17931353
85	0xbe0e47f6	-0.13894638
86	0xbdaa1dbb	-0.08306452
87	0x3e025456	0.12727484
88	0xbd882eb9	-0.06649537
89	0xbdd252f3	-0.102697276
90	0x3e236a98	0.15958631
91	0x3e338ec3	0.17534928
92	0x3d1279b3	0.035760593
93	0x3dc75a14	0.09733978
94	0xbe13367d	-0.14376254
95	0x3d97ff48	0.07421738
96	0x3d8f8921	0.07008577
97	0x3e369d0d	0.17833348
98	0xbddaf47c	-0.10691163
99	0x3d8fed18	0.07027644
100	0x3ddbfe2f	0.10741841
101	0xbcb59525	-0.022165844
102	0x3cb0b5b9	0.021571027
103	0xbde9db20	-0.11418748
104	0x3e276040	0.1634531
105	0xbd7e7a1a	-0.062128164
106	0x3e295e00	0.16539764
107	0x3e2b6c7e	0.16740605
108	0xbd3935d9	-0.04521737
109	0x3e254b78	0.1614207
110	0xbe1f9a00	-0.1558609
111	0xbdfa5979	-0.12224097
112	0x3d35a6d4	0.044348553
113	0x3dd7d87a	0.105393365
114	0xbe20002d	-0.15625067
115	0x3df0039c	0.117194384
116	0xbca45815	-0.020061532
117	0x3d02bcb4	0.031918243
118	0xbc88392e	-0.016628828
119	0x3dfe75f8	0.124248445
120	0xbd0de1b6	-0.034639083
121	0x3dc0b99a	0.09410401
122	0xbddc7ce9	-0.10766012
123	0xbd11a800	-0.035560608
124	0xbc244a7d	-0.010027525
125	0x3d34909a	0.044083215
126	0xbd72d4de	-0.059285037
127	0x3e121f14	0.14269668
128	0x3e0b1d8e	0.13585493
129	0xbdc90d53	-0.098169945
130	0x3da4865f	0.08033442
131	0xbd2f5a63	-0.04281081
132	0xbd401e19	-0.046903703
133	0xbdf765d1	-0.12079967
134	0x3dba4caf	0.090966575
135	0x3da87ad5	0.08226553
136	0x3d5bb4d4	0.053639248
137	0x3e20f76a	0.15719381
138	0xbdfd2e94	-0.123624
139	0xbe1d0adf	-0.15336178
140	0x3e05e5a8	0.13075888
141	0x3db1a91f	0.086748354
142	0xbd83bd6d	-0.064326145
143	0x3dab9634	0.08378258
144	0x3d867533	0.06565323
145	0x3cc437ec	0.023952447
146	0xbda96cd4	-0.082727104
147	0xbd10102a	-0.035171665
148	0xbc96739e	-0.018365677
149	0x3e0581dd	0.1303782
150	0x3da7216f	0.08160674
151	0xbdd878b0	-0.10569894
152	0x3de970ac	0.113984436
153	0x3d8e04ec	0.069345325
154	0xbd9d97e6	-0.07694988
155	0xbc6ed419	-0.014576935
156	0x3e2734ea	0.16328779
157	0x3dbe9004	0.093048126
158	0x3d26e9d2	0.040750332
159	0xbe275c93	-0.16343908
160	0xbca1c5aa	-0.019747574
161	0xbd79b92e	-0.060967617
162	0xbdb40e26	-0.08791761
163	0x3e18fe1d	0.14940687
164	0xbca9f239	-0.020745384
165	0xbdcf063e	-0.101086125
166	0x3db84632	0.08997764
167	0xbc169e62	-0.009193035
168	0xbdf9563d	-0.12174652
169	0x3dcb8274	0.09936991
170	0xbd06c4cc	-0.032902524
171	0xbe2a591b	-0.16635554
172	0xbd133027	-0.035934594
173	0x3d85004f	0.064941995
174	0x3d3a7788	0.04552415
175	0xbe2c803b	-0.16845791
176	0xbbbba240	-0.005726129
177	0x3d2e4bf5	0.042552907
178	0x3c0336af	0.008008643
179	0xbdc63592	-0.096781865
180	0xbe1e63d6	-0.15467772
181	0xbd8c4892	-0.06849779
182	0x3e0ba0dc	0.13635582
183	0x3d3b3706	0.04570677
184	0xbd1748d3	-0.036934685
185	0xbcd4178f	-0.02589014
186	0x3e20e0af	0.1571071
187	0x3e381a70	0.17978835
188	0x3e26e151	0.16296889
189	0xbdf3ab83	-0.11897948
190	0xbcb3f082	-0.021965269
191	0xbc1be9e0	-0.009516209
192	0xbce80d04	-0.028326519
193	0xbd758946	-0.059945367
194	0x3e1c9c53	0.15294008
195	0xbc4c67be	-0.012475906
196	0xbd9a9832	-0.0754856
197	0xbdcfa2b1	-0.10138453
198	0x3cbfb99b	0.023403933
199	0xbd669034	-0.056289867
200	0xbe0f6fcd	-0.14007492
201	0xbcf7a171	-0.030228348
202	0xbdd7ab00	-0.105306625
203	0xbe3076e1	-0.17232849
204	0x3e0914bb	0.13386814
205	0xbe31ad25	-0.17351206
206	0x3dea902f	0.11453282
207	0x3de24b54	0.11049524
208	0xbd336036	-0.043792926
209	0x3e28349c	0.16426319
210	0x3d403b92	0.04693181
211	0x3d840858	0.06446904
212	0xbe246e33	-0.16057663
213	0x3e02975a	0.12753049
214	0xbdef8494	-0.11695209
215	0xbd6abeaa	-0.057310738
216	0xbde8af2b	-0.11361536
217	0x3dcae726	0.09907369
218	0x3ba127d2	0.004918077
219	0xbe002fc7	-0.12518226
220	0xbbaf1521	-0.005343095
221	0x3e1bbd55	0.15208943
222	0x3ddc933f	0.107702725
223	0x3dc2e7bf	0.09516858
224	0x3d59323d	0.053026427
225	0xbda9b116	-0.082857296
226	0x3c9a9bc4	0.018873103
227	0x3e4509eb	0.19242065
228	0x3d202231	0.039095107
229	0x3e3a4c36	0.18193135
230	0x3e01b4bf	0.12666605
231	0xbe1ed00e	-0.15509054
232	0xbdc5deb1	-0.09661616
233	0x3e0cf626	0.13765773
234	0xbda316d7	-0.07963341
235	0x3d868934	0.06569138
236	0x3e05c6b3	0.13064079
237	0xbcf4d502	-0.029886726
238	0x3d935e08	0.071956694
239	0xbe14b494	-0.1452201
240	0x3d4d82c4	0.050173536
241	0xbd90a741	-0.07063151
242	0x3d993297	0.07480352
243	0xbde940d7	-0.1138932
244	0xbdf28b3d	-0.11842964
245	0xbe0405a7	-0.12892781
246	0x3e347ec9	0.1762649
247	0xbbcaf90e	-0.0061942404
248	0x3c7bf015	0.015377064
249	0x3dff851d	0.12476561
250	0x3dfd128a	0.12357052
251	0xbe19bdb3	-0.15013771
252	0x3dc41fe3	0.095763944
253	0xbdb9798e	-0.09056388
254	0xbd2a7592	-0.04161603
255	0xbcb57fe6	-0.022155713

conv3.bias f4 [32]
0	0xbdbd51a2	-0.09244086
1	0xbd47c602	-0.04877282
2	0xbe1debff	-0.15422057
3	0x3e2b8423	0.16749625
4	0x3df85ab4	0.12126675
5	0x3d63b6c1	0.05559421
6	0xbd6d0dbf	-0.057874437
7	0xbdb046a9	-0.08607227
8	0x3de4c467	0.11170273
9	0x3dc45ce8	0.09588033
10	0x3cb4aefe	0.022056099
11	0xbcadf4f7	-0.021234972
12	0x3ce57ac7	0.028012646
13	0x3e307ad7	0.1723436
14	0x3da4e3d8	0.0805127
15	0x3d9916bd	0.0747504
16	0x3df773ff	0.120826714
17	0xbe1c5c33	-0.15269546
18	0xbe1af13b	-0.15131085
19	0xbdc7b97a	-0.09752174
20	0x3e211ea1	0.1573434
21	0xbca40cf5	-0.02002571
22	0x3e037a33	0.12839584
23	0xbd26474d	-0.04059534
24	0xbaa2cb57	-0.0012420219
25	0xbdcdd0a8	-0.10049564
26	0xbe133f0d	-0.1437952
27	0x3dd38055	0.10327212
28	0x3e1bd71d	0.15218778
29	0x3e0644e5	0.13112219
30	0x3cffd0a1	0.031227412
31	0x3d8a86ec	0.067640156

depthwise_conv4.weight f4 [32, 1, 3, 3]
0	0xbe898b3e	-0.26864046
1	0xbca9fea1	-0.0207513
2	0x3d97abed	0.07405839
3	0x3e9a3955	0.30121866
4	0xbe9baba0	-0.30404377
5	0xbde4b011	-0.111663945
6	0xbe322be4	-0.17399555
7	0xbe53f2ea	-0.20698133
8	0x3e61258f	0.21986984
9	0x3ea7a917	0.32746193
10	0x3e19feb8	0.15038574
11	0x3e97a5a8	0.29618573
12	0xbda30ce1	-0.07961441
13	0x3d7a279a	0.061072923
14	0xbe975bcd	-0.29562226
15	0xbe99d61a	-0.3004616
16	0x3ea641a3	0.32471952
17	0xbe11f92f	-0.14255212
18	0xbe95d3d2	-0.2926317
19	0xbdc8c4ab	-0.098031364
20	0x3e8fde3f	0.28099248
21	0xbe125b5b	-0.14292662
22	0xbc924b9d	-0.01785832
23	0xbea9653d	-0.3308505
24	0xbe42199a	-0.18955079
25	0x3db9800b	0.090576254
26	0xbd6f4594	-0.058415964
27	0xbdc37a14	-0.09544769
28	0xbd2ae3a2	-0.041720994
29	0xbe8ce6b7	-0.2751977
30	0xbdb780b4	-0.08960095
31	0x3d7f5b92	0.062343188
32	0x3e075202	0.13214877
33	0xbe888f5c	-0.26671875
34	0x3e2a5d35	0.16637118
35	0x3e515fae	0.20446655
36	0x3e89b8b8	0.26898742
37	0x3db57635	0.08860437
38	0x3ea3d722	0.3200007
39	0xbd9f226a	-0.07770236
40	0x3e89f3c6	0.26943797
41	0x3df99b34	0.12187806
42	0xbe367146	-0.17816648
43	0xbe387fba	-0.18017474
44	0x3e46acf1	0.1940191
45	0x3cbd4da9	0.02310832
46	0xbe125457	-0.14289986
47	0x3de0ddb2	0.10979785
48	0xbdf3d205	-0.119052924
49	0x3e87ea02	0.2654572
50	0x3db91dc9	0.09038884
51	0x3d038d88	0.032117397
52	0x3d214ac0	0.039377928
53	0x3e5b1b1c	0.2139706
54	0x3d908674	0.07056895
55	0xbcacee78	-0.021109805
56	0xbd811af4	-0.06303969
57	0xbdeed53b	-0.11661764
58	0x3e1c008a	0.1523458
59	0x3e949389	0.2901881
60	0xbd31fa74	-0.04345174
61	0xbe89bda9	-0.26902512
62	0xbe61eb5e	-0.22062442
63	0x3ea851e9	0.32874992
64	0x3e085726	0.13314494
65	0x3e92f122	0.28699595
66	0x3def293b	0.11677786
67	0xbe344a0a	-0.17606369
68	0xbd70fd5f	-0.058835384
69	0xbd60bafd	-0.054865826
70	0x3e043c12	0.1291354
71	0xbe659782	-0.22421077
72	0x3e0c1875	0.13681205
73	0xbd217ded	-0.039426733
74	0xbdedea56	-0.11616962
75	0x3e566947	0.20938598
76	0x3daa2ffb	0.08309933
77	0xbe76f550	-0.24117017
78	0xbd144510	-0.036198676
79	0xbe8af3ae	-0.27139038
80	0x3e26cd3e	0.16289231
81	0x3dbc2a95	0.091878094
82	0x3e3c0464	0.1836105
83	0x3c55dc2d	0.013052982
84	0x3ea9adcc	0.3314041
85	0xbe6732a0	-0.22577906
86	0xbe9d4bc5	-0.3072187
87	0x3e1f2812	0.1554263
88	0x3e20a927	0.15689526
89	0x3e80b78b	0.25140032
90	0x3eaa6893	0.3328291
91	0x3e9e8442	0.3096028
92	0x3cd2c6f2	0.02572963
93	0x3e987abb	0.29781136
94	0x3e9069fc	0.2820586
95	0xbe4353b9	-0.19074906
96	0x3d3945d2	0.0452326
97	0x3e776bc0	0.24162197
98	0x3e446ea5	0.19182833
99	0x3e660c6f	0.2246568
100	0x3e8e100c	0.27746618
101	0xbe6fe727	-0.23428021
102	0xbe89d2f2	-0.2691875
103	0x3e631362	0.22175363
104	0x3e464927	0.19363843
105	0x3e5c4900	0.21512222
106	0x3b219e17	0.002466088
107	0x3e3218ac	0.17392224
108	0xbcc73723	-0.024318283
109	0xbeab9041	-0.33508494
110	0xbe9d49d5	-0.30720392
111	0xbdf02a79	-0.11726851
112	0xbe13d85c	-0.14438003
113	0x3d8be507	0.06830793
114	0xbc8b4364	-0.016999908
115	0x3e91a5be	0.28446764
116	0xbe75a6a0	-0.23989344
117	0xbc1afb01	-0.009459258
118	0xbd2e631a	-0.04257498
119	0xbdfc376a	-0.12315257
120	0x3e5299bb	0.20566456
121	0x3ea662d2	0.3249727
122	0xbbd1e9b9	-0.0064060357
123	0x3dbb3722	0.09141375
124	0x3e5e5503	0.21712117
125	0xbd8001f3	-0.06250372
126	0x3e00336b	0.12519614
127	0x3e3972a9	0.18110146
128	0x3caf067b	0.021365395
129	0x3e83fe07	0.25779745
130	0x3e90ffa1	0.2832003
131	0xbd741f54	-0.05960019
132	0xbc87d8ff	-0.016582964
133	0x3cda927d	0.02668118
134	0xbea4fd45	-0.3222448
135	0xbdd66824	-0.10469082
136	0x3e8f556a	0.27994853
137	0x3e88bec8	0.26708055
138	0xbe34ad61	-0.17644264
139	0x3de79533	0.11307754
140	0xbe051b48	-0.12998688
141	0x3e79acdf	0.24382351
142	0xbe8824f7	-0.26590702
143	0xbd850788	-0.06495577
144	0xbe95d43b	-0.29263481
145	0x3ea32b5b	0.31869015
146	0x3e871645	0.26384178
147	0xbe6d769c	-0.23189777
148	0xbd8b65fd	-0.06806562
149	0xbe2bd962	-0.16782144
150	0xbe2c1104	-0.16803366
151	0x3e9c648d	0.30545464
152	0xbe3f7f40	-0.18700886
153	0x3de571cc	0.11203346
154	0xbe8eb41a	-0.27871782
155	0xbe36bd9d	-0.17845769
156	0x3e607756	0.21920523
157	0x3e522d4a	0.20525089
158	0xbe53673e	-0.20644853
159	0xbe6bb072	-0.23016527
160	0xbd8cf7b8	-0.06883186
161	0x3ea11a99	0.31465605
162	0xbe1ddf93	-0.15417318
163	0x3e025df2	0.1273115
164	0x3e978d1c	0.29599845
165	0xbe596566	-0.21230087
166	0xbd2bf3b4	-0.04198046
167	0x3e23cfc6	0.15997228
168	0x3dc9cf69	0.098540135
169	0x3dbce42e	0.09223209
170	0xbe626a2f	-0.22110818
171	0xbdec9237	-0.11551326
172	0xbe7131fc	-0.23554224
173	0x3e8ff988	0.28120065
174	0xbe574dd5	-0.21025784
175	0x3e5e4391	0.21705462
176	0xbea35c26	-0.3190624
177	0xbd037f42	-0.032103784
178	0x3e73cc3a	0.23808375
179	0xbcadc006	-0.021209728
180	0xbd583f54	-0.05279477
181	0x3e92a667	0.2864258
182	0xbe96e1ce	-0.2946915
183	0x3df817ca	0.121139124
184	0xbe573b05	-0.21018608
185	0xbe02d1dd	-0.12775369
186	0xbe3a7a58	-0.18210733
187	0x3e8dbf24	0.2768489
188	0xbe08e7b0	-0.13369632
189	0x3e3a5eb0	0.18200183
190	0xbd0d646b	-0.034519594
191	0x3e1bfb8a	0.15232673
192	0x3e90ce74	0.2828251
193	0xbe81f05a	-0.25378686
194	0xbc8c15bc	-0.017100208
195	0x3ded9fbd	0.11602733
196	0xbe991cbd	-0.29904738
197	0x3ea3af8a	0.31969863
198	0x3d76f256	0.060289703
199	0xbe492c4a	-0.19645801
200	0xbe673928	-0.22580397
201	0xbd97c713	-0.07411017
202	0xbe02183f	-0.12704562
203	0xbe7e1649	-0.24813189
204	0xbdd01385	-0.10159973
205	0xbe5c9338	-0.21540534
206	0x3b1b3afd	0.0023686283
207	0xbdc85eb0	-0.09783685
208	0xbdd286a4	-0.10279587
209	0xbd2a03e4	-0.041507617
210	0xbe92da5f	-0.2868223
211	0xbe733723	-0.23751502
212	0xbe73de89	-0.23815359
213	0x3d96430e	0.073370084
214	0x3d1cd031	0.038284484
215	0x3e4b401f	0.19848679
216	0xbdafa281	-0.08575917
217	0x3e895a18	0.2682655
218	0xbe693cd1	-0.22777106
219	0x3d87b021	0.06625391
220	0x3dcdc3f3	0.1004714
221	0x3e162f63	0.14666514
222	0xbe367e3d	-0.17821594
223	0x3e920e95	0.2852675
224	0xbdc4a637	-0.096020155
225	0x3e9ae5f4	0.30253565
226	0x3e531967	0.20615159
227	0x3ea7036b	0.32619795
228	0x3ea602aa	0.32423908
229	0x3ea12140	0.3147068
230	0x3e9831af	0.29725406
231	0xbe116a18	-0.14200628
232	0xbe758747	-0.23977385
233	0xbd51a93a	-0.051186778
234	0xbe8ce0ec	-0.27515352
235	0xbe4e9906	-0.20175561
236	0x3e5b5b87	0.21421634
237	0x3c2bcb34	0.010485459
238	0xbd8df739	-0.069319196
239	0xbdce29c5	-0.10066561
240	0xbd82ba77	-0.063832216
241	0xbdb531b4	-0.08847371
242	0xbd4b53b8	-0.049640387
243	0x3e3bfbe3	0.18357806
244	0xbdef1ad5	-0.1167504
245	0x3da79a8d	0.08183775
246	0xbe81ece0	-0.25376034
247	0xbe9b3a4b	-0.30317912
248	0xbe9f41b6	-0.3110482
249	0xbe3ebbcd	-0.18626328
250	0xbe0972d1	-0.13422705
251	0x3e442557	0.19154869
252	0x3e88b14e	0.26697773
253	0x3dda0773	0.10645952
254	0x3e85953d	0.26090422
255	0x3e419c69	0.18907322

depthwise_conv4.bias f4 [32]
0	0x3de1d10b	0.110262
1	0xbca55ef8	-0.020186886
2	0x3e598dfe	0.21245572
3	0xbc7c8918	-0.015413545
4	0x3d1a9218	0.037736982
5	0xbe8cc50f	-0.27494094
6	0xbe8cb74f	-0.27483603
7	0x3da93d93	0.082636975
8	0xbe2dd8ef	-0.16977285
9	0x3c8ede16	0.017439883
10	0x3df01ee6	0.117246434
11	0x3e6cf683	0.23140912
12	0x3e2f7b9a	0.17136994
13	0x3e6bbe75	0.23021872
14	0x3e3152c6	0.17316732
15	0xbe350d5e	-0.1768088
16	0x3d740d4c	0.059582993
17	0xbe9bc379	-0.3042257
18	0x3e0e992c	0.13925618
19	0xbc0c6bb9	-0.008570605
20	0xbe995197	-0.2994506
21	0x3e656de7	0.22405206
22	0x3ea7cd9c	0.32774055
23	0xbe9fc583	-0.31205377
24	0xbe6d1c04	-0.23155218
25	0xbb8d2fc6	-0.0043086736
26	0x3ddae13c	0.10687491
27	0x3cc521b9	0.024063932
28	0x3e1febac	0.15617245
29	0xbe10ec60	-0.1415267
30	0xbe4bf584	-0.19917876
31	0x3e9bc25d	0.30421725

group_norm4.weight f4 [32]
0	0x3f801c6d	1.0008675
1	0x3f800a55	1.0003153
2	0x3f7ea2f3	0.9946739
3	0x3f7f8309	0.9980932
4	0x3f7f9cb6	0.99848497
5	0x3f7fb188	0.99880266
6	0x3f8028e5	1.001248
7	0x3f80490c	1.0022292
8	0x3f803302	1.0015566
9	0x3f800e5e	1.0004385
10	0x3f7faf46	0.9987682
11	0x3f80789e	1.003681
12	0x3f801a73	1.0008072
13	0x3f7d1d98	0.9887328
14	0x3f7db4d7	0.99104065
15	0x3f7fe431	0.9995757
16	0x3f80caa1	1.0061837
17	0x3f7f5abc	0.99747825
18	0x3f7f9377	0.9983439
19	0x3f7f66f9	0.997665
20	0x3f801175	1.0005327
21	0x3f7f8e3b	0.998264
22	0x3f7eef3d	0.995838
23	0x3f803052	1.0014746
24	0x3f8009a8	1.0002947
25	0x3f819ada	1.0125382
26	0x3f7cf29e	0.98807704
27	0x3f7f8af1	0.9982138
28	0x3f7fbda4	0.99898744
29	0x3f7fc7b6	0.9991411
30	0x3f7fa025	0.99853736
31	0x3f7fe550	0.9995928

group_norm4.bias f4 [32]
0	0x3a9046cb	0.0011007426
1	0x3a9788c9	0.0011561151
2	0xbbf90640	-0.007599622
3	0x3ac5bbf5	0.0015085923
4	0xbb8e5a0b	-0.00434423
5	0x3a4c2577	0.0007787565
6	0xba8a965b	-0.0010573374
7	0x3a61b8c0	0.0008610599
8	0xba8d230c	-0.0010767891
9	0xbb5352cd	-0.0032245398
10	0xbbc91ff2	-0.0061378414
11	0x37c9f276	2.4073972e-05
12	0xba9f5447	-0.0012155854
13	0xbc4afd37	-0.012389473
14	0x3c1fa58e	0.009744061
15	0x39e562f1	0.00043752
16	0x3ac578b1	0.0015065876
17	0x3b30b592	0.0026963693
18	0xbacc02af	-0.0015564765
19	0x3a8388c3	0.0010035265
20	0xb9e5656f	-0.00043753858
21	0xbab71616	-0.0013968374
22	0xbb34c3bf	-0.0027582494
23	0xba6c6266	-0.0009017348
24	0x3a8334d5	0.0010010252
25	0x3b5ff132	0.0034170863
26	0xbc3ca5fe	-0.011514185
27	0xbb08abaf	-0.0020854285
28	0xba0b1577	-0.0005305628
29	0x39b8f624	0.00035278604
30	0x3ae48755	0.0017435352
31	0x37590d24	1.29372675e-05

depthwise_conv5.weight f4 [32, 1, 3, 3]
0	0x3e84cb75	0.25936475
1	0x3e6de73a	0.23232737
2	0xbe37d2db	-0.17951529
3	0xbe294de5	-0.1653362
4	0xbe9128b5	-0.2835137
5	0xbddcbde9	-0.1077841
6	0x3e3257b5	0.1741627
7	0x3e90db68	0.28292394
8	0xbe367d2a	-0.17821184
9	0xbd5bab00	-0.053629875
10	0x3d2fd486	0.042927288
11	0x3e7fb3d7	0.24970947
12	0x3e938a6e	0.2881655
13	0x3decd653	0.115643166
14	0x3e9cb094	0.30603468
15	0x3e1253e5	0.14289816
16	0xbc941675	-0.018077115
17	0xbe231edf	-0.15929745
18	0x3e30e8bd	0.17276283
19	0x3e9e507f	0.3092079
20	0x3df6d28a	0.12051876
21	0xbdc17f37	-0.094480924
22	0xbc012960	-0.0078834
23	0xbdece413	-0.11566939
24	0x3ea35312	0.31899315
25	0x3daa7f96	0.08325116
26	0x3de28b11	0.11061681
27	0xbe4fc44e	-0.20289728
28	0xbd8aaf40	-0.067717075
29	0xbdee8c48	-0.1164785
30	0x3e897a18	0.26850963
31	0xbb7720cd	-0.003770876
32	0x3dda57af	0.106612556
33	0xbdff2087	-0.12457376
34	0x3e8cce8c	0.27501333
35	0x3ea299c8	0.3175795
36	0x3e710f01	0.2354088
37	0xbd85d6da	-0.0653512
38	0xbe95f454	-0.2928797
39	0x3ea63796	0.32464284
40	0x3ea7b82a	0.32757694
41	0x3e74c802	0.23904422
42	0x3ccdd8ba	0.025127757
43	0x3e31ea01	0.17374422
44	0xbdade369	-0.08490641
45	0xbe58e286	-0.21180162
46	0xbe902766	-0.2815506
47	0xbdca0d7c	-0.09865853
48	0x3e7a32b7	0.24433409
49	0x3dbb9c55	0.09160677
50	0xbe144c18	-0.14482152
51	0xbdf964a7	-0.12177401
52	0xbdadf962	-0.084948316
53	0xbd50487e	-0.050850384
54	0xbe46a197	-0.19397579
55	0x3cc29cd6	0.023756426
56	0xbea80148	-0.32813478
57	0x3d6c170c	0.057639167
58	0xbe518c9a	-0.20463791
59	0xbe8479a8	-0.25874066
60	0xbcdb98ea	-0.026806314
61	0xbe5fad3f	-0.21843432
62	0xbcec5f2b	-0.028853973
63	0x3e404707	0.18777095
64	0xbdafc344	-0.08582166
65	0xbd41c26b	-0.047304552
66	0xbe0abc42	-0.13548377
67	0xbe2a5a0e	-0.16635916
68	0xbd3d31fe	-0.046190254
69	0x3c56a1ba	0.013100082
70	0xbe940641	-0.2891102
71	0xbe975347	-0.29555723
72	0x3d0c968d	0.034323264
73	0x3d899403	0.06717684
74	0xbe762f86	-0.24041566
75	0x3e4a0472	0.19728258
76	0xbe41a23c	-0.18909544
77	0x3e92581b	0.28582844
78	0x3d138357	0.036013927
79	0x3d0f0ed6	0.034926258
80	0x3d9d7132	0.07687606
81	0xbe03e706	-0.12881097
82	0x3e7a3213	0.24433164
83	0xbe003f6d	-0.12524195
84	0x3ea0b230	0.31385946
85	0xbd973e20	-0.07384896
86	0x3e984a38	0.29744124
87	0x3e1762d4	0.14783794
88	0x3d0e2c25	0.03471007
89	0xbdb34f20	-0.08755326
90	0xbd3484f5	-0.04407211
91	0xbd9145ed	-0.070934154
92	0xbdcc652a	-0.09980233
93	0x3e9fe89b	0.3123215
94	0xbeaa0f73	-0.33214912
95	0xbd7883c3	-0.060672533
96	0xbe4d0be4	-0.20024067
97	0x3cfe6ef7	0.031058772
98	0x3e0f1112	0.13971356
99	0x3e14c2a6	0.14527377
100	0x3e9fd78a	0.3121913
101	0xbd7dafa5	-0.061935086
102	0xbdfb6184	-0.12274459
103	0x3e73912b	0.23785846
104	0xbdc97a81	-0.09837819
105	0xbda4e38e	-0.08051215
106	0xbcdac68e	-0.026706006
107	0xbe7cc10e	-0.2468302
108	0xbdcaa07f	-0.098938935
109	0xbe8156c0	-0.25261497
110	0x3e5551ff	0.2083206
111	0xbd9c1094	-0.076203495
112	0xbe892e9b	-0.2679337
113	0xbe81a31e	-0.2531976
114	0x3e3e571f	0.18587922
115	0x3e20b887	0.15695392
116	0xbe9e6152	-0.30933625
117	0x3e7fea33	0.24991684
118	0x3e0d84fb	0.1382026
119	0xbe37bcfd	-0.17943187
120	0xbe0a2bab	-0.1349322
121	0xbcfd61f0	-0.03093049
122	0xbc35ae31	-0.011088894
123	0xbd887066	-0.06662063
124	0xbda5f7a1	-0.08103872
125	0xbe979672	-0.29606968
126	0x3e358b14	0.17728835
127	0xbe44f024	-0.19232231
128	0x3e409c18	0.18809545
129	0xbca6ccb7	-0.020361288
130	0x3e012c2c	0.12614506
131	0x3d48d7f5	0.049034078
132	0x3e966c22	0.29379374
133	0x3d17b49a	0.03703747
134	0x3e4597d8	0.19296205
135	0x3e80a705	0.25127426
136	0xbdb391ae	-0.087680206
137	0xbe5f8093	-0.21826391
138	0x3db42e1f	0.087978594
139	0xbe0c54f2	-0.13704279
140	0x3ea5e874	0.3240391
141	0xbe4382f0	-0.19092917
142	0x3e4fe653	0.20302705
143	0xbe18c21f	-0.14917801
144	0x3e37aa14	0.17935973
145	0xbe438392	-0.19093159
146	0xbe9dbb4a	-0.30806953
147	0xbd2cc330	-0.042178333
148	0x3e0653ea	0.13117948
149	0x3d7501a3	0.059816014
150	0xbe724ae7	-0.23661385
151	0x3e0e3565	0.13887556
152	0xbdb8e316	-0.09027688
153	0xbdbc97c8	-0.092086375
154	0xbd69bd65	-0.057065386
155	0xbdfda16c	-0.123843044
156	0xbe8aec0a	-0.2713321
157	0xbe7a26c1	-0.24428846
158	0xbb53eea7	-0.0032338293
159	0x3e894ec1	0.26817897
160	0x3e6c7c17	0.23094212
161	0x3e8fc5cc	0.28080595
162	0xbc961c43	-0.018324023
163	0x3d7dea5c	0.06199108
164	0x3ea097af	0.31365725
165	0x3dd58ae9	0.10426886
166	0xbe8ea98d	-0.27863732
167	0xbe8fee2d	-0.281114
168	0xbd482185	-0.04886009
169	0xbea384b3	-0.3193718
170	0xbdb95ac6	-0.09050517
171	0xbb6942df	-0.0035592837
172	0xbe010483	-0.12599377
173	0x3e36ce61	0.17852165
174	0xbe175c76	-0.14781365
175	0x3cf094b3	0.02936778
176	0xbdfee5af	-0.124461524
177	0xbe954088	-0.29150796
178	0x3e66f758	0.22555292
179	0xbd92d375	-0.071692385
180	0x3e19cd33	0.15019684
181	0xbd465635	-0.048422057
182	0x3e08bfb7	0.13354383
183	0x3ca057b6	0.019573074
184	0x3e72bbe6	0.2370449
185	0xbe5f7a23	-0.21823935
186	0xbe491aef	-0.1963918
187	0xbcf5a968	-0.029988006
188	0xbe3cbc01	-0.18431093
189	0xbe530a05	-0.20609291
190	0x3cd878d3	0.026424801
191	0x3e1cbba8	0.1530596
192	0xbdb85b82	-0.09001829
193	0x3d233ed3	0.039854836
194	0xbcede982	-0.02904201
195	0x3e1b0b75	0.1514109
196	0x3e87b3c9	0.26504353
197	0x3e00d994	0.12583
198	0x3d6f0750	0.058356583
199	0x3d8d0aba	0.068868116
200	0x3d8cf156	0.06881969
201	0xbe3f93f0	-0.18708777
202	0xbdcb07ca	-0.09913595
203	0xbd407b59	-0.046992633
204	0x3ea9e2b8	0.33180785
205	0x3b97ec71	0.0046363403
206	0x3ddda662	0.10822751
207	0x3daaca24	0.083393365
208	0x3e0a25eb	0.13491027
209	0x3e2e0845	0.16995342
210	0xbe02e3fc	-0.12782282
211	0xbe84dc54	-0.25949347
212	0xbe9edba9	-0.31026962
213	0xbe5f03a2	-0.2177873
214	0x3d9bd6cf	0.07609331
215	0x3b4312b7	0.0029765794
216	0x3d144646	0.03619983
217	0x3c26cbe8	0.010180451
218	0x3ea36377	0.31911823
219	0xbe7daf3a	-0.24773875
220	0xbc5f21a7	-0.013618863
221	0xbe8e49e4	-0.2779075
222	0x3e3ae1ba	0.1825017
223	0x3e81724a	0.25282508
224	0xbe3904c2	-0.18068221
225	0xbe72097f	-0.23636435
226	0x3e2f7524	0.1713453
227	0xbd33bd57	-0.04388174
228	0xbe674455	-0.2258466
229	0x3c33b71d	0.010968951
230	0x3de0e89d	0.109818675
231	0x3e92a5ed	0.28642216
232	0xbdde1979	-0.10844702
233	0xbdab7233	-0.08371391
234	0xbd250506	-0.040287994
235	0x3db0b767	0.08628731
236	0x3b212d9e	0.002459384
237	0xbe85d711	-0.26140645
238	0x3ea3ac98	0.31967616
239	0x3e96e764	0.29473412
240	0x3e88c18b	0.26710162
241	0xbe654343	-0.2238894
242	0x3ca26739	0.019824611
243	0xbe1dc9ac	-0.15408963
244	0x3e39c432	0.18141249
245	0xbb984529	-0.0046469164
246	0xbe7d678a	-0.24746528
247	0xbe02b4a0	-0.12764215
248	0x3e86ab1b	0.26302418
249	0x3e325571	0.17415406
250	0x3ea68e57	0.32530472
251	0xbe8c54dd	-0.27408496
252	0x3d339cad	0.04385059
253	0xbea198d5	-0.31561914
254	0xbb221748	-0.0024733115
255	0x3eaa4dbd	0.33262435

depthwise_conv5.bias f4 [32]
0	0x3d3c2a77	0.045938935
1	0xbda3fa23	-0.08006694
2	0xbe51fb97	-0.2050613
3	0x3d6baa7b	0.05753563
4	0xbe0e253a	-0.13881388
5	0x3ea593f7	0.3233945
6	0x3e0770de	0.13226649
7	0xbda5c784	-0.08094695
8	0x3ba3b7fd	0.0049962983
9	0x3dd96020	0.106140375
10	0x3e00d068	0.125795
11	0xbdadb1be	-0.08481167
12	0x3e6da80d	0.23208638
13	0xbea03c19	-0.3129585
14	0xbe2d8910	-0.16946816
15	0x3e065ec3	0.13122086
16	0xbe92d7bd	-0.2868022
17	0xbe18884a	-0.1489574
18	0xbe276e2b	-0.1635062
19	0x3df55e63	0.119808935
20	0xbe292a83	-0.16520123
21	0xbdfaec5c	-0.12252113
22	0x3e3d69ab	0.1849734
23	0x3e985ba0	0.29757404
24	0xbe5739a1	-0.21018077
25	0xbe90760c	-0.28215063
26	0x3e704578	0.23464
27	0xbd90e50c	-0.07074937
28	0x3e31685a	0.17324963
29	0x3ce37b9c	0.027768902
30	0xbe84069b	-0.2578629
31	0xbc91d5dd	-0.017802173

group_norm5.weight f4 [32]
0	0x3f839968	1.0281191
1	0x3f7ecfb0	0.99535656
2	0x3f7f0a32	0.9962493
3	0x3f801ad8	1.0008192
4	0x3f800769	1.0002261
5	0x3f80052e	1.0001581
6	0x3f7feb16	0.9996809
7	0x3f805283	1.002518
8	0x3f801394	1.0005975
9	0x3f7fcbe2	0.99920475
10	0x3f81d839	1.0144111
11	0x3f7ee2c7	0.99564785
12	0x3f7b7db8	0.98238707
13	0x3f7fc478	0.9990916
14	0x3f7f2edf	0.99680895
15	0x3f7fdfb3	0.9995071
16	0x3f80c5f6	1.0060413
17	0x3f7f4414	0.99713254
18	0x3f803151	1.001505
19	0x3f7fe499	0.9995819
20	0x3f7fe1a3	0.9995367
21	0x3f7fb4a6	0.9988502
22	0x3f803ee3	1.0019192
23	0x3f7f91d8	0.99831915
24	0x3f806ecd	1.0033814
25	0x3f801a9d	1.0008122
26	0x3f7f75fc	0.99789405
27	0x3f801390	1.000597
28	0x3f800971	1.0002881
29	0x3f7f62e4	0.9976027
30	0x3f7ea766	0.9947418
31	0x3f8017a6	1.0007217

group_norm5.bias f4 [32]
0	0x3a9c89b4	0.0011942894
1	0x3ba067e9	0.0048951996
2	0x3b717a21	0.0036846476
3	0x3a815165	0.0009866176
4	0x383555dc	4.3233726e-05
5	0x38e5c8fd	0.00010957008
6	0x3a5f4e2e	0.00085184246
7	0xbb0adb42	-0.0021187817
8	0xba876fdc	-0.0010333019
9	0xb8b60b60	-8.680555e-05
10	0x3b2f2631	0.0026725645
11	0x3b6de833	0.0036301732
12	0xbc997e81	-0.01873708
13	0x3a624846	0.00086319854
14	0x3b2c9426	0.002633342
15	0x37ab7ed5	2.044385e-05
16	0xbbb19ee4	-0.0054205526
17	0x3b6243a6	0.0034525185
18	0x384e4845	4.9181534e-05
19	0xba8af466	-0.0010601401
20	0x3a028ccd	0.00049800874
21	0x3a93d24a	0.0011277881
22	0x3b0cfb3c	0.0021512052
23	0xbb04d20d	-0.0020266802
24	0xbb5ee3e9	-0.0034010357
25	0xba4f9344	-0.00079183676
26	0xba877faf	-0.0010337735
27	0xb984bac3	-0.0002531615
28	0x37dc47a9	2.6259413e-05
29	0x3b632eaa	0.0034665265
30	0x3b9d4f8b	0.004800742
31	0xba473046	-0.0007598441

depthwise_conv6.weight f4 [64, 1, 3, 3]
0	0x3d775e89	0.06039289
1	0x3e831d60	0.2560835
2	0xbdf9d59e	-0.12198947
3	0xbd92967c	-0.07157609
4	0xbe9282eb	-0.28615507
5	0x3e1724ae	0.14760086
6	0xbeafc0a3	-0.34326658
7	0xbddad056	-0.10684268
8	0xbe626662	-0.22109368
9	0x3e9ff4e5	0.31241527
10	0xbeac22e2	-0.33620363
11	0x3e4fb4c2	0.20283797
12	0x3e16bd5a	0.1472067
13	0x3e35d49a	0.17756882
14	0xbd4bdffa	-0.049774148
15	0x3e179222	0.14801839
16	0xbcf6f47d	-0.030145878
17	0xbdc66b5b	-0.09688445
18	0xbe80a375	-0.25124708
19	0x3cd7c31f	0.026338158
20	0xbcd9cea7	-0.026587797
21	0xbe8cc5cf	-0.27494666
22	0x3e658e88	0.22417653
23	0x3ca2de6e	0.019881453
24	0x3e8e1e15	0.27757326
25	0xbd93aa54	-0.07210222
26	0xbe1cb121	-0.15301944
27	0x3e9cc0c0	0.30615807
28	0xbd4441bf	-0.047914263
29	0xbd1ea572	-0.038732
30	0xbe537496	-0.20649943
31	0x3e5e7c91	0.21727206
32	0x3e7cdf2e	0.24694511
33	0x3e1faa99	0.15592422
34	0xbe8174b7	-0.2528436
35	0xbe4b2762	-0.19839242
36	0xbdaaa98c	-0.0833312
37	0xbe5498d1	-0.2076142
38	0x3e825653	0.25456485
39	0xbeaa653b	-0.33280358
40	0xbe7d3b06	-0.24729547
41	0x3ea3d27e	0.3199653
42	0x3e438aba	0.19095889
43	0xbea2cca0	-0.3179674
44	0xbe930bbe	-0.28719896
45	0x3ced3146	0.02895416
46	0x3e0ed927	0.13950025
47	0xbe8d839f	-0.2763948
48	0xbd8c539f	-0.06851887
49	0xbd49508a	-0.049149074
50	0x3d9d8d37	0.0769295
51	0x3e0376f9	0.12838353
52	0x3d12eead	0.03587215
53	0xbe6f1dfe	-0.23351285
54	0xbe2ab0c5	-0.16668995
55	0xbe7a971e	-0.24471709
56	0xbdbf6f4c	-0.093474
57	0xbe9fbd2a	-0.31199008
58	0xbd9d531e	-0.07681869
59	0xbca82368	-0.020524696
60	0xbdf55d06	-0.119806334
61	0x3da4f12e	0.08053814
62	0xbe62144c	-0.22078055
63	0x3dd4d2c2	0.10391761
64	0xbe9042d2	-0.2817598
65	0xbe5442a0	-0.2072854
66	0xbd6fd5d3	-0.058553528
67	0x3e18f0ac	0.14935559
68	0x3c7dcd95	0.015490909
69	0x3dbf67bd	0.093459584
70	0xbea8b623	-0.3295146
71	0x3d0fdc34	0.03512211
72	0xbd7b42b6	-0.061342917
73	0x3e8782e7	0.26467058
74	0xbe90df3c	-0.28295314
75	0xbcb45d2e	-0.022017088
76	0x3e5815be	0.21102044
77	0x3e5778fc	0.21042246
78	0x3d47ffcf	0.048827942
79	0x3d68560e	0.056722693
80	0xbde5db61	-0.11223484
81	0xbdffacf7	-0.12484162
82	0xbcd669a6	-0.026173424
83	0xbdc03347	-0.093847804
84	0xbd689840	-0.056785822
85	0x3e8f5480	0.27994156
86	0xbe114bf4	-0.1418913
87	0xbd51e8e5	-0.051247496
88	0xbe9cc312	-0.30617577
89	0xbbe990f5	-0.007127876
90	0xbda8efbc	-0.08248851
91	0x3c3dd026	0.011585271
92	0x3c8e29d6	0.017353933
93	0x3e69e3ec	0.22840852
94	0x3dd4e70a	0.1039563
95	0xbd938605	-0.072032966
96	0x3e2a53fe	0.16633603
97	0x3ea519d4	0.32246268
98	0xbe332aa5	-0.17496736
99	0x3d97434f	0.07385885
100	0x3db1b6ae	0.086774215
101	0x3e562fc2	0.20916656
102	0xbe7f8677	-0.24953638
103	0xbe973947	-0.29535887
104	0xbe795e06	-0.24352273
105	0x3d71c375	0.059024293
106	0xbe68ce5a	-0.22734967
107	0xbe2c0432	-0.16798475
108	0x3e325cc4	0.174182
109	0x3e7965f3	0.24355297
110	0xbd59cb3f	-0.053172346
111	0xbe3515e7	-0.17684136
112	0x3ea66d4c	0.32505262
113	0x3e1be9c4	0.15225893
114	0xbe023bd4	-0.12718135
115	0xbe83d732	-0.25750118
116	0xbe3f12a2	-0.18659452
117	0x3e6cc311	0.23121287
118	0xbe60c628	-0.2195059
119	0x3e8a51a6	0.27015418
120	0x3d31b603	0.04338647
121	0xbd041a42	-0.032251604
122	0x3d7dd9e0	0.06197536
123	0x3e0c949d	0.13728566
124	0x3d3c3c6e	0.045956068
125	0x3e8570ee	0.2606272
126	0x3d6be00d	0.05758672
127	0x3de4e486	0.111764
128	0x3e93e215	0.28883424
129	0x3d9e19c6	0.0771976
130	0xbe7d7915	-0.2475322
131	0xbe3c6f3d	-0.18401809
132	0x3e9731ec	0.29530275
133	0x3bc16d03	0.005902888
134	0x3e21d5e4	0.15804249
135	0x3d968a65	0.073506154
136	0xbe411bd2	-0.18858269
137	0x3df7f260	0.12106776
138	0x3e529ec4	0.20568377
139	0xbea05ba1	-0.31319907
140	0x3e151db6	0.14562115
141	0x3e66e53d	0.22548385
142	0x3dcc753e	0.099833
143	0xbe44508d	-0.19171353
144	0x3d29207c	0.041290745
145	0x3dcf10ef	0.10110652
146	0x3e981566	0.29703826
147	0xbe9d3deb	-0.30711302
148	0x3e4b430d	0.19849797
149	0x3e5cc8fb	0.21561043
150	0xbd406607	-0.0469723
151	0xbde352d9	-0.11099786
152	0xbe9828db	-0.2971867
153	0x3dc41e0b	0.09576043
154	0xbcf99fca	-0.030471701
155	0xbea26e0b	-0.3172458
156	0x3e71e1eb	0.23621337
157	0xbd9d6397	-0.07685011
158	0xbe2a99eb	-0.16660278
159	0x3d9904c8	0.07471615
160	0x3ce31a9e	0.027722653
161	0x3e9a6f8d	0.30163231
162	0xbe937061	-0.28796676
163	0x3e907807	0.28216574
164	0xbe37ea17	-0.17960392
165	0xbe59fc5d	-0.21287675
166	0xbd549bf2	-0.051906534
167	0xbd89ec23	-0.06734493
168	0x3ea1b203	0.31581125
169	0xbe46fa1f	-0.19431351
170	0xbe631b19	-0.22178306
171	0xbe9742c6	-0.29543132
172	0x3dd81419	0.10550708
173	0x3ea94950	0.33063745
174	0xbddb6b2f	-0.10713803
175	0x3e71f774	0.23629552
176	0x3eaab159	0.3333843
177	0x3d30f812	0.04320533
178	0x3e8b660a	0.27226287
179	0xbe91a9e3	-0.28449926
180	0xbea8279a	-0.32842714
181	0xbdecbefc	-0.11559865
182	0xbd78f6f0	-0.060782373
183	0x3ddd9a7d	0.10820482
184	0xbe8c0d69	-0.2735398
185	0x3e87cd1b	0.2652367
186	0xbe3d30b7	-0.18475614
187	0xbd13f6da	-0.036124088
188	0x3c6691d4	0.014072854
189	0x3e0b9ddf	0.13634442
190	0xbb42766d	-0.0029672638
191	0xbe9cbf5d	-0.3061475
192	0x3c440b59	0.011965596
193	0xbe472fe9	-0.1945187
194	0xbdf90ca8	-0.12160617
195	0xbe08c82d	-0.13357611
196	0x3e24343c	0.16035551
197	0xbe714dc3	-0.2356482
198	0x3e86a74e	0.26299518
199	0xbe691f9e	-0.22765967
200	0xbccc66d7	-0.024951382
201	0x3d1fb854	0.03899415
202	0x3dc66263	0.096867345
203	0x3e8b057c	0.27152622
204	0xbe88c2ba	-0.26711065
205	0x3e8452ad	0.25844327
206	0xbe640f5e	-0.22271487
207	0xbe93a633	-0.28837737
208	0x3e4759db	0.19467871
209	0xbd0f7c73	-0.035030793
210	0x3e2d411f	0.16919373
211	0xbd98c2e4	-0.074590474
212	0xbdbf6cd9	-0.09346933
213	0x3e6cbd98	0.231192
214	0xbe87cecc	-0.2652496
215	0xbdb5df54	-0.08880487
216	0x3bac30da	0.005254847
217	0xbd39683f	-0.045265432
218	0xbe51f240	-0.20502567
219	0xbde9492f	-0.11390912
220	0xbdb4ce72	-0.08828439
221	0x3e926362	0.28591448
222	0xbe18e235	-0.14930041
223	0x3de62151	0.11236823
224	0x3e8c154c	0.27359998
225	0xbe74efc6	-0.23919591
226	0x3e12fa14	0.1435321
227	0x3e019bcb	0.12657087
228	0x3df07e3c	0.11742827
229	0xbe8acb59	-0.27108267
230	0x3e802dac	0.25034845
231	0x3e964be3	0.29354772
232	0xbd7c63d0	-0.061618626
233	0x3e9b7ca9	0.30368546
234	0x3ea538b0	0.32269812
235	0xbe7b0188	-0.24512303
236	0x3e864fb3	0.2623268
237	0xbce02bcf	-0.02736464
238	0xbcc0cf0b	-0.023536226
239	0xbeaaa7c6	-0.33331126
240	0xbea9d075	-0.33166853
241	0x3dbb995a	0.09160109
242	0x3e9c3e51	0.30516294
243	0x3e682cfc	0.2267341
244	0xbe7ad60b	-0.24495713
245	0xbc03821c	-0.008026626
246	0xbe4c0064	-0.19922024
247	0xbe0762c8	-0.13221276
248	0xbe631d02	-0.22179034
249	0x3df8886a	0.12135394
250	0x3cbeb43b	0.0232793
251	0x3d06728d	0.032824088
252	0xbda5981e	-0.08085655
253	0x3e5a5b89	0.2132398
254	0xbea65d97	-0.32493278
255	0x3e50b135	0.20380099

depthwise_conv6.bias f4 [64]
0	0x3d1c2697	0.03812274
1	0x3ea49d30	0.32151175
2	0xbc5d3c2f	-0.013503118
3	0xbe876a00	-0.2644806
4	0x3ea1eafd	0.31624594
5	0xbe566799	-0.20937957
6	0x3cc6c2eb	0.024262866
7	0xbe8ae183	-0.27125177
8	0x3d8d9466	0.069130704
9	0x3e7c5e76	0.24645409
10	0x3da0148d	0.0781642
11	0x3e2b68f9	0.16739263
12	0xbe8c604c	-0.2741722
13	0x3d8bc4d2	0.0682465
14	0xbe839fbc	-0.25707805
15	0x3e0300fa	0.12793341
16	0x3df52df8	0.119716585
17	0xbe3865cf	-0.18007587
18	0x3e7d59f6	0.24741349
19	0x3e962b8e	0.29330105
20	0xbea38c6f	-0.3194308
21	0xbe1e94a4	-0.1548639
22	0x3cc58477	0.024111016
23	0x3e763390	0.24043107
24	0x3d02e46d	0.031956125
25	0x3c3d90f5	0.011570205
26	0x3dfc6124	0.123232156
27	0x3ea31a9c	0.3185624
28	0xbe820b02	-0.25399023
29	0x3e2a738e	0.16645643
30	0x3ddd9e1d	0.10821173
31	0xbdbdcd7a	-0.09267707
32	0x3d7a0e5f	0.06104886
33	0x3d9b0b0b	0.07570466
34	0x3d812f52	0.06307854
35	0xbda7cbfe	-0.08193205
36	0xbe505ade	-0.20347163
37	0x3e6ef6c7	0.23336326
38	0x3e13f14c	0.14447516
39	0x3dd2c109	0.10290725
40	0x3e965e20	0.29368687
41	0x3db1b353	0.086767815
42	0x3dffe5e1	0.12495018
43	0x3e53c4f8	0.20680606
44	0xbe205fe7	-0.15661584
45	0x3ea45d1f	0.32102296
46	0xbe36f69e	-0.17867514
47	0xbea53b2b	-0.32271704
48	0x3ddbc1c2	0.10730316
49	0x3e487eb6	0.19579586
50	0xbe1f47ad	-0.15554686
51	0xbea45f4c	-0.32103956
52	0xbb8d63bf	-0.004314869
53	0xbdbf257b	-0.09333321
54	0xbdcd3d6e	-0.100214824
55	0xbe817d93	-0.25291118
56	0xbd884ff1	-0.066558726
57	0xbca5ac68	-0.020223811
58	0xbe2eb4df	-0.17061184
59	0xbe6ea11b	-0.23303644
60	0x3b8ea1c4	0.00435278
61	0x3bae1a04	0.00531316
62	0x3e7e7da7	0.2485262
63	0x3e9aa274	0.30202067
