contrast_guided_cnn/saved_models/uae_net_epoch_1.pth (torch, 65828 bytes, 22 tensors)

conv1.weight f4 [32, 3, 3, 3]
0	0x3e2ebdcc	0.1706459
1	0xbe2157ed	-0.15756197
2	0xbcb733c3	-0.02236355
3	0xbe094cfd	-0.13408275
4	0x3e42833c	0.18995374
5	0x3c03b304	0.008038286
6	0x3d837b08	0.06419951
7	0x3e3c51b5	0.18390544
8	0x3d053035	0.032516677
9	0xbd2fa45f	-0.042881366
10	0xbd91172b	-0.07084497
11	0x3e07759a	0.13228455
12	0xbe0d20ae	-0.13781998
13	0xbe2a2f0a	-0.16619506
14	0x3cd0f510	0.02550748
15	0xbe448194	-0.19190055
16	0x3ddf8131	0.10913313
17	0x3d09ff7e	0.033690922
18	0xbd832391	-0.06403268
19	0xbdb55dad	-0.08855758
20	0xbdac891b	-0.08424588
21	0xbd4eb3ed	-0.05046456
22	0x3c5f504f	0.013629987
23	0xbe1f783e	-0.15573213
24	0xbc3ee3db	-0.011651005
25	0x3e38ca60	0.1804595
26	0x3da48b52	0.08034386
27	0x3e07b3ac	0.13252133
28	0xbe3ef388	-0.18647587
29	0x3de7c9a6	0.11317758
30	0x3e18f1c4	0.14935976
31	0xbdc3eb5e	-0.09566377
32	0xbc148cb5	-0.00906675
33	0x3e28c0e4	0.16479832
34	0xbdaa8513	-0.08326163
35	0x3e06f10d	0.13177891
36	0xbd98cb17	-0.07460611
37	0xbdf6d9ec	-0.12053284
38	0xbe2325b5	-0.15932353
39	0xbd39b582	-0.045339115
40	0x3e3597e6	0.17733726
41	0xbdc87cc5	-0.09789423
42	0xbe18d301	-0.14924242
43	0x3e44b3ce	0.19209215
44	0x3e1a0231	0.15039898
45	0xbde5711f	-0.11203217
46	0xbd103f9f	-0.035216924
47	0xbc8b7526	-0.017023634
48	0xbdcbcc97	-0.09951132
49	0x3dae5a87	0.085133605
50	0x3e1880b8	0.14892852
51	0xbdceb18b	-0.100924574
52	0x3ddf4e63	0.10903623
53	0x3e0dcfe8	0.13848841
54	0xbe35a62a	-0.17739168
55	0x3e37c113	0.17944746
56	0x3d4e8bc6	0.050426267
57	0xbd6d36f6	-0.057913743
58	0xbe0659d9	-0.13120212
59	0x3cbb191c	0.022839122
60	0x3e0613e6	0.13093528
61	0xbdd8f40d	-0.10593424
62	0x3e15633b	0.14588635
63	0xbe1e368e	-0.15450498
64	0xbd87b3be	-0.0662608
65	0x3e20b076	0.15692315
66	0xbdb7b3de	-0.08969854
67	0x3d3ec0f6	0.04657074
68	0xbe1a8a85	-0.15091904
69	0xbd0ec377	-0.03485438
70	0x3e05b708	0.13058102
71	0x3cfcbad1	0.0308508
72	0x3bc7bf21	0.0060957824
73	0x3d163ed3	0.036681008
74	0xbe3bed14	-0.18352157
75	0xbdadcac2	-0.084859386
76	0x3e2ecf18	0.17071187
77	0x3e31e2c0	0.17371655
78	0x3dd3597e	0.10319804
79	0x3e38d009	0.18048109
80	0x3dc226b5	0.09480039
81	0x3de6fd36	0.11278765
82	0xbd3b4c23	-0.045726907
83	0x3e2d74e2	0.16939119
84	0xbdff3fea	-0.124633625
85	0x3e1c9f1f	0.15295075
86	0x3e0d48c1	0.13797285
87	0x3e24ca21	0.16092731
88	0xbc9cfda3	-0.019163912
89	0x3e2661d3	0.16248254
90	0xbe3ca256	-0.18421301
91	0x3db4b20b	0.088230215
92	0x3dc5b0b4	0.09652844
93	0x3e3c8a67	0.18412171
94	0x3c4f8e68	0.01266823
95	0x3d93e90e	0.07222186
96	0x3d84b13e	0.06479119
97	0xbd5b7e1e	-0.05358707
98	0x3e1ab685	0.15108688
99	0xbe048e6a	-0.12944952
100	0x3da5fd57	0.08104961
101	0x3ce28e33	0.027655696
102	0x3d945af1	0.07243908
103	0x3d84b5cf	0.0647999
104	0x3db4e496	0.08832662
105	0xbd405970	-0.046960294
106	0x3d60a868	0.054848105
107	0xbe32af54	-0.17449695
108	0xbdd63725	-0.10459737
109	0x3c23d028	0.009998359
110	0x3b4b43be	0.003101572
111	0xbe3b3be2	-0.18284562
112	0x39a547af	0.0003152466
113	0xbdb3baa9	-0.08775837
114	0xbe1b3f0b	-0.15160768
115	0xbde893c6	-0.113563105
116	0xbe2859c4	-0.16440493
117	0x3d7f4cff	0.06232929
118	0xbe2324d9	-0.15932025
119	0x3e1a2f4f	0.1505711
120	0xbde07c6d	-0.10961232
121	0x3e1cf2c8	0.15326989
122	0xbd3fc6f6	-0.046820603
123	0xbcda7dbd	-0.026671285
124	0x3e36caa2	0.17850736
125	0xbded4d79	-0.11587042
126	0xbaaab8da	-0.0013025061
127	0xbe1d9fa0	-0.15392923
128	0x3cc27a78	0.023740038
129	0x3ccca4b9	0.02498089
130	0x3dbbe992	0.091754094
131	0x3e3b3943	0.18283562
132	0x3d0e6672	0.03476567
133	0x3cdf1977	0.027233822
134	0xbe33b258	-0.17548501
135	0xbe03196f	-0.12802671
136	0x3d03d3b8	0.032184333
137	0x3e267ba2	0.162581
138	0x3c7d506a	0.015461067
139	0xbd51f33a	-0.05125735
140	0x3c592176	0.013252607
141	0x3c311380	0.010807872
142	0xbdbf8160	-0.09350848
143	0xbe442f63	-0.19158702
144	0xbd25b723	-0.040457856
145	0xbde70292	-0.11279787
146	0xbd27db96	-0.040980898
147	0x3d273511	0.040822092
148	0x3c05f245	0.008175437
149	0xbd95f067	-0.07321244
150	0x3dc16ddf	0.094447844
151	0x3dc77101	0.09738351
152	0x3de3a4f1	0.111154445
153	0x3e146ea9	0.14495338
154	0xbc87f9fc	-0.016598694
155	0xbda97d1c	-0.08275816
156	0xbd9e5f69	-0.07733042
157	0x3cfcaf32	0.030845258
158	0x3dd878d6	0.105699226
159	0xbe45cf5c	-0.19317383
160	0x3cf62fe4	0.030052133
161	0x3e3f6bda	0.18693486
162	0x3df9a362	0.12189366
163	0x3dcd5eed	0.10027871
164	0xbe20b5ab	-0.15694301
165	0xbd431d51	-0.04763538
166	0xbd019a35	-0.031641204
167	0xbe2fd6de	-0.17171809
168	0xbdca1234	-0.09866753
169	0xbe2ccda2	-0.16875318
170	0x3d0b83fa	0.03406141
171	0xbe0bf641	-0.13668157
172	0xbd6c72f7	-0.057726827
173	0xbdd3db2b	-0.10344537
174	0xbe212893	-0.15738134
175	0x3dc9efaa	0.098601654
176	0xbe013409	-0.12617506
177	0xbd3b4eda	-0.045729496
178	0x3e2fbbc7	0.17161475
179	0xbe2f15ae	-0.17098114
180	0x3d0565c4	0.032567754
181	0xbd8c196a	-0.06840785
182	0xbd64c767	-0.055854227
183	0xbd2bec8d	-0.04197364
184	0x3da68a21	0.08131815
185	0xbdd516cb	-0.10404738
186	0xbe3e295f	-0.1857047
187	0x3c0c71bb	0.008572037
188	0xbdbbcb58	-0.09169644
189	0x3d859cd2	0.06524052
190	0xbca40ec7	-0.020026578
191	0x3de75066	0.11294632
192	0x3d99924b	0.07498606
193	0xbca9f0af	-0.02074465
194	0x3d24e2a7	0.040255215
195	0xbe1676f0	-0.14693809
196	0x3df4b761	0.11949039
197	0x3e15037c	0.1455211
198	0x3df4bc3e	0.11949967
199	0xbdecca78	-0.11562055
200	0x3d83b0c1	0.064301975
201	0xbd1d8d84	-0.038465038
202	0xbe042967	-0.12906419
203	0xbd9a98c9	-0.07548673
204	0xbd80d347	-0.06290298
205	0x3e21c175	0.15796454
206	0xbe061b52	-0.1309636
207	0x3e19d427	0.15022336
208	0xbde8ecfe	-0.11373328
209	0x3c890c53	0.01672951
210	0xbdf00fb0	-0.11721742
211	0x3c103c96	0.008803507
212	0xbe40c0ce	-0.18823549
213	0x3c975ecc	0.01847782
214	0x3e186679	0.1488284
215	0x3ddfed42	0.10933925
216	0xbdf348bf	-0.118791096
217	0x3e3d550f	0.18489479
218	0xbdcc74e5	-0.09983233
219	0xbd26ede0	-0.0407542
220	0xbe45a6d6	-0.19301924
221	0xbd992c92	-0.07479204
222	0x3e3de3a0	0.18543863
223	0x3c3e9641	0.011632503
224	0xbe157fe2	-0.14599565
225	0xbcb8ee92	-0.022574697
226	0xbd20e0b7	-0.039276805
227	0xbc058294	-0.008148808
228	0xbe3142d2	-0.17310646
229	0x3e0b1976	0.13583931
230	0x3dc69108	0.09695631
231	0xbe0c0727	-0.13674603
232	0xbe212050	-0.15734982
233	0x3e1fb132	0.15594938
234	0xbddbf3ed	-0.107398845
235	0x3dac7d81	0.084223755
236	0x3d7feb7d	0.06248044
237	0x3e0a9c47	0.13536178
238	0xbd542757	-0.05179533
239	0x3e247651	0.16060759
240	0xbd645cf8	-0.055752724
241	0xbc3bef54	-0.0114706345
242	0xbc03a9d1	-0.008036093
243	0x3d9191e7	0.07107907
244	0xbda5ca13	-0.08095183
245	0x3df935b1	0.12168444
246	0x3d502d19	0.05082426
247	0x3e21d650	0.1580441
248	0x3e2e133b	0.16999523
249	0xbdad73e1	-0.08469368
250	0xbdce1aeb	-0.10063728
251	0x3d37fc7f	0.044918533
252	0x3e225473	0.15852527
253	0xbdfe9df9	-0.12432475
254	0xbe1e3dec	-0.15453309
255	0x3d52461e	0.0513364

conv1.bias f4 [32]
0	0x3df86464	0.12128523
1	0x3dbd6cb7	0.09249251
2	0xbdb0e275	-0.08636943
3	0x3dda75d9	0.10667009
4	0x3cfc0ceb	0.030767879
5	0xbe02481d	-0.12722822
6	0x3dc1d9b3	0.09465351
7	0xbdd148c1	-0.10218955
8	0xbcd7ffe2	-0.026367132
9	0x3cccd604	0.025004394
10	0xbda984a1	-0.0827725
11	0x3d051d1f	0.032498475
12	0xbdf15d69	-0.11785395
13	0x3c9d0183	0.01916576
14	0x3dff2a00	0.12459183
15	0x3d1ab64c	0.037771508
16	0xbe1f8a25	-0.15580042
17	0xbd6a2689	-0.057165656
18	0x3d8f80ea	0.0700701
19	0x3dbeabd3	0.093101166
20	0x3dffda0e	0.124927625
21	0xbe04d934	-0.12973481
22	0xbdd41cd0	-0.10357058
23	0x3e3e0cbc	0.18559545
24	0x3e2f9d0d	0.17149754
25	0x3d49a1c5	0.04922654
26	0xbca3ca16	-0.019993823
27	0xbe0e744e	-0.13911554
28	0x3de72ef7	0.11288255
29	0xbd47056d	-0.04858916
30	0x3e20181c	0.15634197
31	0x3e29d070	0.16583419

conv2.weight f4 [32, 32, 3, 3]
0	0x3d61b84b	0.055107396
1	0x3c3d5720	0.011556417
2	0xbcddd4f9	-0.027079092
3	0x3d6a10c4	0.057144895
4	0xbc014b22	-0.007891448
5	0x3d47bf64	0.04876651
6	0x3d02188a	0.031761684
7	0x3d489de2	0.048978694
8	0x3d7bdb1c	0.061488256
9	0x3d5969e4	0.0530795
10	0xbcaa0601	-0.020754816
11	0xbd1e9ffb	-0.038726788
12	0xbc2ae525	-0.010430609
13	0xbca9406e	-0.020660605
14	0x3d1437db	0.03618608
15	0x3bb6ec4d	0.0055823685
16	0x3c36f2c6	0.01116628
17	0xbce42bdf	-0.02785295
18	0xbcc40543	-0.02392829
19	0xbd22e129	-0.03976551
20	0x3d2ba047	0.0419009
21	0xbcbe8d3b	-0.023260703
22	0xbbd25a14	-0.0064194296
23	0x3d041585	0.032247085
24	0xbd35de04	-0.044401184
25	0xbd333f33	-0.043761443
26	0x3d308074	0.043091252
27	0xbd4e0627	-0.050298836
28	0x3c682b31	0.014170454
29	0x3c552744	0.01300985
30	0x3cfbf97d	0.030758614
31	0x3d069907	0.032860782
32	0xbd3f26b6	-0.046667777
33	0x3d33e8f7	0.043923344
34	0x3a655431	0.0008748202
35	0xbd4a709d	-0.049423803
36	0x3cb0ff63	0.021606153
37	0x3d3a4f4f	0.04548579
38	0xbd4a5baf	-0.049403843
39	0x3c7e3850	0.015516356
40	0xbc8f77db	-0.017513206
41	0xbbe456af	-0.0069683413
42	0x3d0443f8	0.032291383
43	0x3cfd5bb1	0.030927511
44	0x3b8c74bc	0.0042863768
45	0xbc909980	-0.01765132
46	0xbcf98d24	-0.030462809
47	0xbbaca28d	-0.005268401
48	0xbd8096e0	-0.06278777
49	0xbd6a8c33	-0.05726261
50	0x3c8befb0	0.017082065
51	0x3d071ce7	0.032986548
52	0xbd683da9	-0.05669943
53	0xbd79c74f	-0.06098109
54	0xbd55b4d5	-0.052174408
55	0x3d295962	0.041345008
56	0x3d1fe0fc	0.03903292
57	0xbcbf7793	-0.023372447
58	0xbca1c7d4	-0.019748606
59	0x3d0c18c5	0.03420331
60	0xbd1c354c	-0.038136765
61	0xbd116dcd	-0.035505105
62	0x3cec6896	0.028858464
63	0xbd07d7a2	-0.033164628
64	0xbd28161f	-0.04103672
65	0xbd718072	-0.058960386
66	0xba0f00cd	-0.00054551364
67	0xbcbbc69c	-0.022921853
68	0x3aafdc22	0.0013417045
69	0xbd23a195	-0.03994902
70	0x3d12032c	0.035647556
71	0xba8568c8	-0.0010178322
72	0xbd515f92	-0.051116534
73	0x3d027b5f	0.031855937
74	0x3ce51ed3	0.0279688
75	0xbb342517	-0.0027487928
76	0x3cb89846	0.022533547
77	0xbcd06abd	-0.025441522
78	0xbd356711	-0.044287745
79	0x3bfb81fa	0.0076754065
80	0x3ccd71ee	0.02507874
81	0xbcd71081	-0.026252987
82	0x3d08dc66	0.033413313
83	0xbcc9d99a	-0.024639893
84	0xbd605711	-0.054770533
85	0x3d107949	0.035271917
86	0xbd38b52f	-0.045094665
87	0xbc62512f	-0.013813301
88	0xbd27352b	-0.04082219
89	0xbd5f3a03	-0.054498684
90	0xbb081fe6	-0.0020770966
91	0x3ba64c93	0.0050750463
92	0x3c96c555	0.018404642
93	0x3d2e4bd1	0.042552773
94	0xbbc5c0f5	-0.006034965
95	0x3d437bc2	0.047725447
96	0x3c53f10d	0.012935889
97	0xbd8182af	-0.06323754
98	0xbb591566	-0.0033124327
99	0xbcc89e4c	-0.024489544
100	0xbd4b73e1	-0.049671058
101	0xbd19b7d8	-0.037528843
102	0x3cbb44ce	0.022859957
103	0xbc57df9c	-0.013175871
104	0xbabb7cd8	-0.0014304174
105	0xbb276ebc	-0.002554818
106	0x39b5ad97	0.00034652345
107	0xbd16a816	-0.036781393
108	0x3cacdbbc	0.021100871
109	0xbd6826cc	-0.056677625
110	0xbd5ba172	-0.053620763
111	0xbd3360eb	-0.0437936
112	0x3d37fffc	0.04492186
113	0xbd43578e	-0.04769092
114	0xbd296a3f	-0.04136109
115	0xbc8d6b1a	-0.017262984
116	0x3b7f8802	0.003899098
117	0xbcb61a7e	-0.02222943
118	0xbb8473d3	-0.0040421276
119	0xbcf4f1f8	-0.029900536
120	0x3d76a0d2	0.060211964
121	0x3d3aa88e	0.045570903
122	0xbc339a06	-0.010962015
123	0x3bd803e4	0.0065922607
124	0xbc8bab8a	-0.01704957
125	0x3ce5e4b1	0.02806315
126	0x3cdc5cf4	0.026899792
127	0x3d66de62	0.056364425
128	0xbd42ec4a	-0.047588624
129	0x3caee358	0.02134864
130	0xbd093079	-0.033493493
131	0x3d1515e5	0.036397833
132	0x3c3c71f6	0.01150178
133	0xbd4d4420	-0.050113797
134	0x3d050e38	0.032484263
135	0x3c373871	0.01118289
136	0xbd3b508e	-0.04573112
137	0x3d34ed10	0.044171393
138	0x3d2b0af9	0.04175851
139	0x3bf5e759	0.0075043854
140	0x3d411bb1	0.04714555
141	0xbd2c5b8f	-0.042079505
142	0x3c3c22b5	0.011482884
143	0xbc0a175d	-0.008428422
144	0x3d4a3bda	0.049373485
145	0x3ca9235c	0.020646743
146	0xbd1fd2fe	-0.039019577
147	0xbd637bb7	-0.055537906
148	0xbd7ac491	-0.061222617
149	0x3cd1cf2c	0.025611483
150	0xbb820e38	-0.00396898
151	0xbd2f26b6	-0.042761527
152	0xbcda6c5e	-0.026663002
153	0xbc8daacf	-0.017293362
154	0xbd1feb61	-0.039042834
155	0xbcacb6e4	-0.021083303
156	0xbccec12c	-0.025238596
157	0xbbcce772	-0.0062531764
158	0xbd3523b1	-0.04422349
159	0xbc466ac3	-0.012110415
160	0x3d5b2642	0.053503282
161	0x3c319738	0.010839276
162	0xbc850224	-0.016236372
163	0x3d49771b	0.049185853
164	0x3d218b59	0.039439533
165	0xbcbda912	-0.023151908
166	0x3cca75c9	0.024714367
167	0x3d2e136d	0.042498995
168	0x3d7803c0	0.06055045
169	0x3d2ce5c0	0.042211294
170	0xbd591e62	-0.05300749
171	0x3cf63e56	0.030059021
172	0xbcf60fef	-0.030036895
173	0x3d0d38de	0.03447806
174	0x3d49d7a5	0.04927792
175	0xbd569c8d	-0.052395392
176	0x3d325f29	0.043547783
177	0x3c6fbd84	0.014632586
178	0xbd29fce5	-0.041500945
179	0x3c213f87	0.009841806
180	0x3d3434c2	0.043995626
181	0xbd238c67	-0.03992882
182	0x3d3234dc	0.043507442
183	0x3b80459d	0.0039145485
184	0xbd34738a	-0.0440555
185	0x3d0c42c4	0.03424336
186	0xbc90593c	-0.017620675
187	0x3d044001	0.0322876
188	0xbd470361	-0.048587207
189	0xbd6dc15a	-0.058045723
190	0xbd80ef26	-0.06295614
191	0xbccd750d	-0.025080228
192	0xbd402733	-0.046912383
193	0xbd6aea7e	-0.057352535
194	0xbd57365c	-0.052542076
195	0xbbf733d1	-0.007544019
196	0x3d08a7ec	0.033363268
197	0x3d0f1d67	0.03494015
198	0xbb91ee3c	-0.0044534486
199	0x3d5513c4	0.052020803
200	0x3c7e6386	0.015526658
201	0xbca85e55	-0.020552794
202	0xbd5406e8	-0.0517644
203	0xbd1e22f0	-0.038607538
204	0x3cf81480	0.030283213
205	0xbd492f7a	-0.049117543
206	0x3ba0bed7	0.0049055624
207	0x3d8163bb	0.0631785
208	0xbd1fead7	-0.03904232
209	0x3ca01473	0.019541001
210	0x3d4cf5d9	0.050039146
211	0x3d68c07e	0.0568242
212	0xbd24ed5e	-0.040265433
213	0x3aa8b150	0.0012870226
214	0x3cd3faa3	0.025876349
215	0x3d78018e	0.060548358
216	0xbc314bd5	-0.010821302
217	0xbc8ecd7a	-0.017431963
218	0x3d25b00d	0.0404511
219	0x3d506c32	0.050884433
220	0x3d75a6eb	0.05997364
221	0xbc1a5d0f	-0.009421601
222	0xbd36f00e	-0.044662528
223	0x3baaf88d	0.005217618
224	0xbbd30025	-0.006439226
225	0xbba678ba	-0.0050803097
226	0xbd3e203a	-0.046417452
227	0xbd1205a9	-0.03564993
228	0x3c98d8c8	0.018658057
229	0xbcf02638	-0.0293151
230	0xbb80b300	-0.0039275885
231	0x3d54f847	0.05199459
232	0xbbff1c5f	-0.0077853645
233	0xbd5ed676	-0.054403745
234	0xbd5b97e5	-0.053611655
235	0xbd4de930	-0.050271213
236	0xbb4b3925	-0.0031009403
237	0xbbf40fa3	-0.007448153
238	0x3d4a7cb2	0.049435325
239	0xbcd3cc23	-0.025854176
240	0x3c62c45b	0.01384076
241	0xbccec805	-0.025241861
242	0xbd44735d	-0.04796158
243	0xbd23bb93	-0.039973807
244	0x3d5aed15	0.053448755
245	0xbcd2d130	-0.025734514
246	0xbca70fb2	-0.020393226
247	0x3cb0287f	0.021503685
248	0xbc9cc8ae	-0.01913866
249	0xbba1f6e2	-0.004942761
250	0xbd719e89	-0.05898908
251	0xbd7d01e0	-0.061769366
252	0x3d2a0f19	0.041518304
253	0x3d64671a	0.055762388
254	0xbc86405e	-0.016388115
255	0xbce0f761	-0.02746171

conv2.bias f4 [32]
0	0x3d6ab576	0.05730196
1	0x3cd5f98c	0.02611997
2	0x3c82b2dc	0.015954427
3	0xbd5ad146	-0.053422235
4	0x3c9d83ec	0.019227944
5	0xbd26d2e4	-0.040728465
6	0xbc08be3d	-0.008346138
7	0xbd63052c	-0.055424854
8	0x3d478939	0.04871485
9	0xbc90ac63	-0.017660325
10	0xbb66ac6d	-0.0035197989
11	0x3c9f4a77	0.019444687
12	0xbcd342f6	-0.025788765
13	0x3cde39b2	0.02712712
14	0xbd3ac5a6	-0.04559865
15	0x3b4bbff4	0.0031089755
16	0xbcbe39ce	-0.023220923
17	0x3d30c551	0.043156926
18	0xbc5a5710	-0.013326421
19	0x3cfc44d4	0.030794539
20	0x3c9829fc	0.018574707
21	0x3c2d0b53	0.010561782
22	0x3c6a13e9	0.0142869735
23	0x3d041aa1	0.032251958
24	0xbd43bfcf	-0.047790345
25	0x3bc0fef2	0.005889767
26	0xbd0685c5	-0.032842416
27	0x3d492ce0	0.04911506
28	0x3ad33f73	0.0016116932
29	0x3c42e2ae	0.011894865
30	0x3c98630b	0.018601915
31	0xbd213860	-0.039360404

conv3.weight f4 [32, 32, 1, 1]
0	0xbe072d63	-0.13200907
1	0xbbe90f17	-0.0071123946
2	0xbdc3243a	-0.09528394
3	0x3def06c3	0.116712116
4	0x3e200414	0.15626556
5	0x3de9ef45	0.1142259
6	0xbd8f8bdd	-0.07009099
7	0x3c88b096	0.016685765
8	0x3d31dcbd	0.043423403
9	0x3d120447	0.03564861
10	0xbe0a22d3	-0.13489847
11	0xbc949c33	-0.018140888
12	0x3d982c12	0.07430281
13	0x3db3bdc0	0.08776426
14	0x3dacf5ca	0.08445318
15	0x3e13cc02	0.14433292
16	0x3e2b9e92	0.16759709
17	0xbdd4aeb8	-0.103848875
18	0xbde5efbb	-0.112273656
19	0x3c8fb4bd	0.017542237
20	0xbd97958d	-0.074015714
21	0xbe132684	-0.14370161
22	0xbe35108b	-0.17682092
23	0xbd1d9456	-0.038471542
24	0x3cba7a6e	0.022763457
25	0xbe326d4a	-0.17424503
26	0x3dd7bb20	0.10533738
27	0x3c369c1a	0.011145616
28	0xbddca0cb	-0.10772856
29	0xbd6e442c	-0.058170483
30	0x3de4c4c0	0.111703396
31	0xbe175940	-0.1478014
32	0x3dc36849	0.09541375
33	0x3c8c26d2	0.017108355
34	0x3c95d4a2	0.018289868
35	0xbdae0705	-0.084974326
36	0x3cbd2f7c	0.023093931
37	0x3d7c4de6	0.061597727
38	0xbe0d63ed	-0.1380765
39	0x3de86098	0.11346549
40	0x3db62153	0.08893075
41	0xbe1a665c	-0.1507811
42	0xbe27059f	-0.16310738
43	0x3d62f010	0.055404723
44	0xbe1ac1bf	-0.15112971
45	0xbe30efd2	-0.17278984
46	0x3dc2825e	0.09497522
47	0xbdbf965b	-0.0935485
48	0xbd12cad7	-0.035837974
49	0x3d864707	0.06556516
50	0x3dcb7fbb	0.09936472
51	0x3d56ac98	0.052410692
52	0xbe04e66a	-0.12978521
53	0xbcf89fc8	-0.030349627
54	0xbc06a635	-0.008218338
55	0x3e2e94d2	0.17048958
56	0xbe056d6b	-0.13030021
57	0xbdd10f81	-0.10208035
58	0x3e153f6a	0.14574972
59	0x3cdd7cfc	0.027037136
60	0xbe28bf36	-0.16479191
61	0x3d617fcf	0.05505353
62	0xbe03f2d0	-0.12885594
63	0xbd8674ec	-0.0656527
64	0xbd443eb7	-0.047911372
65	0xbd4ca141	-0.04995847
66	0xbd956f3e	-0.072966084
67	0x3d7fe37b	0.0624728
68	0x3d0d9493	0.03456552
69	0xbe23605e	-0.1595473
70	0xbdd5d407	-0.10440832
71	0x3cf370f5	0.029716948
72	0xbb479379	-0.003045289
73	0xbdcd982a	-0.100387886
74	0x3dbe2724	0.09284809
75	0x3cc22d63	0.023703283
76	0x3e10d664	0.14144284
77	0xbde2b78d	-0.11070166
78	0xbda2b2e4	-0.07944277
79	0xbe2bea2a	-0.16788545
80	0x3dd477bc	0.103744
81	0xbadd974b	-0.0016906051
82	0x3d8ffbd5	0.07030455
83	0xbddaa60e	-0.10676204
84	0x3e2e45d2	0.17018822
85	0xbe008954	-0.12552387
86	0xbdc4a8f4	-0.09602538
87	0x3de8e0af	0.1137098
88	0xbd9be052	-0.07611145
89	0xbdbf84a4	-0.09351471
90	0x3e17833a	0.14796153
91	0x3e21fb72	0.15818575
92	0x3d1ce433	0.038303565
93	0x3db69c87	0.08916574
94	0xbe1bc830	-0.15213084
95	0x3db111a9	0.086459465
96	0x3da98a15	0.0827829
97	0x3e2cd216	0.16877016
98	0xbdd99942	-0.10624935
99	0x3d825af4	0.06365004
100	0x3dc5592d	0.096361496
101	0xbcae6e6c	-0.021292888
102	0x3cdc1253	0.026864206
103	0xbde7d7e2	-0.11320473
104	0x3e29e433	0.16590957
105	0xbd7a033d	-0.061038245
106	0x3e25948f	0.16169952
107	0x3e1f971e	0.1558499
108	0xbd2b951b	-0.041890245
109	0x3e2cc977	0.16873728
110	0xbe160680	-0.14650917
111	0xbdf67e48	-0.12035805
112	0x3d2f032d	0.042727638
113	0x3dd46e15	0.10372559
114	0xbe230ad1	-0.15922095
115	0x3dfbd3b6	0.1229624
116	0xbc8ffc03	-0.017576223
117	0x3cee1e89	0.029067295
118	0xbca7b83d	-0.020473594
119	0x3dfa8e55	0.12234179
120	0xbd039442	-0.03212381
121	0x3dcf516f	0.10122954
122	0xbdc577f4	-0.0964202
123	0xbd134fe4	-0.03596486
124	0xbc79e8e6	-0.015253281
125	0x3d3d7a4d	0.046259213
126	0xbd7e48f2	-0.062081285
127	0x3e1240ed	0.1428258
128	0x3dfb28ee	0.12263666
129	0xbdab16d0	-0.083539605
130	0x3da9a3b1	0.08283175
131	0xbd17cdea	-0.03706161
132	0xbd03bb84	-0.03216125
133	0xbdf7d063	-0.121002935
134	0x3db1235d	0.08649323
135	0x3da56332	0.08075561
136	0x3d4c75bd	0.04991697
137	0x3e1fda7d	0.1561069
138	0xbdec85de	-0.11548971
139	0xbe0ca098	-0.13733137
140	0x3e04130d	0.12897892
141	0x3dabc90f	0.08387958
142	0xbd8ae83a	-0.06782575
143	0x3dabdeb0	0.08392084
144	0x3d81d07f	0.063385956
145	0x3cc5c68a	0.024142522
146	0xbda7b681	-0.08189107
147	0xbd0367ce	-0.032081418
148	0xbca7541b	-0.020425847
149	0x3e0a3bfc	0.13499445
150	0x3da59f93	0.08087077
151	0xbdd4c5a7	-0.10389262
152	0x3dddea3c	0.10835692
153	0x3d834d76	0.06411259
154	0xbda95226	-0.08267622
155	0xbc3a7817	-0.011381171
156	0x3e283735	0.1642731
157	0x3db740a8	0.08947879
158	0x3d3179ae	0.043328933
159	0xbe1f0842	-0.15530494
160	0xbd0616de	-0.03273665
161	0xbd7dae99	-0.061934087
162	0xbda13a50	-0.0787245
163	0x3e12306b	0.14276282
164	0xbcb6a107	-0.02229358
165	0xbdd99cef	-0.10625636
166	0x3dbf822d	0.09351001
167	0xbbb10f41	-0.0054034297
168	0xbdf87418	-0.12131518
169	0x3dd138bd	0.102159
170	0xbd016441	-0.03158975
171	0xbe2ca7a5	-0.16860826
172	0xbceb1ae0	-0.028699338
173	0x3d7e3cb1	0.0620696
174	0x3d6431e3	0.05571164
175	0xbe267d54	-0.16258746
176	0xbc4a7a50	-0.012358263
177	0x3d13bce5	0.036068816
178	0x3b413230	0.0029479377
179	0xbdd00585	-0.10157303
180	0xbe22e40b	-0.15907304
181	0xbd78d4e8	-0.06074992
182	0x3e048e4b	0.12944905
183	0x3d238e1f	0.03993046
184	0xbd242b29	-0.040080223
185	0xbcdb9353	-0.026803648
186	0x3e1f31d5	0.15546353
187	0x3e2fce64	0.17168576
188	0x3e260868	0.16214144
189	0xbdfdecf4	-0.12398711
190	0xbcc2bdf4	-0.023772217
191	0xbb0941da	-0.0020943792
192	0xbcd84a1b	-0.026402524
193	0xbd722695	-0.059118826
194	0x3e19a653	0.15004854
195	0xbc38bee6	-0.0112759825
196	0xbd9e21ba	-0.077212766
197	0xbdce71a0	-0.10080266
198	0x3cbe994e	0.02326646
199	0xbd681e0b	-0.056669276
200	0xbe0f537b	-0.13996689
201	0xbcfc55f7	-0.03080271
202	0xbdd97b17	-0.10619181
203	0xbe303ee0	-0.17211485
204	0x3e0783c2	0.13233855
205	0xbe317968	-0.17331469
206	0x3ddcfca3	0.10790374
207	0x3dddd871	0.108322985
208	0xbd1ec881	-0.038765434
209	0x3e28f7af	0.16500734
210	0x3d446334	0.04794617
211	0x3d81e1f0	0.06341922
212	0xbe230112	-0.15918377
213	0x3e02470f	0.12722419
214	0xbde8caf2	-0.11366834
215	0xbd64cf24	-0.055861607
216	0xbde6ba03	-0.11265948
217	0x3dcb34df	0.09922194
218	0x3b6a0ec8	0.0035714377
219	0xbdf56113	-0.11981406
220	0xbbb0eb90	-0.005399175
221	0x3e1c596b	0.15268485
222	0x3ddd085e	0.107926115
223	0x3dbe0093	0.09277453
224	0x3d7c8237	0.06164762
225	0xbdcb75b0	-0.099345565
226	0x3d136635	0.035986144
227	0x3e3539d3	0.1769784
228	0x3d000fb0	0.03126496
229	0x3e2f5ef0	0.1712606
230	0x3e0cd347	0.13752471
231	0xbe14a780	-0.14517021
232	0xbdad070d	-0.084486105
233	0x3e196437	0.14979635
234	0xbdc00187	-0.09375291
235	0x3d46ea5c	0.048563346
236	0x3e114821	0.14187671
237	0xbd137a34	-0.036005214
238	0x3d457f50	0.048217118
239	0xbe0887b9	-0.13333024
240	0x3d14e8f2	0.036354966
241	0xbda73c86	-0.08165841
242	0x3d7e2350	0.062045395
243	0xbdf0b7dc	-0.117538184
244	0xbe03d841	-0.12875463
245	0xbdfedae1	-0.124440916
246	0x3e247771	0.16061188
247	0xbc8d91be	-0.01728141
248	0x3becceb2	0.0072267884
249	0x3e0b7c12	0.13621548
250	0x3ddd3dd9	0.10802812
251	0xbe287bc2	-0.1645346
252	0x3dcea4a4	0.100899965
253	0xbdc8a352	-0.09796776
254	0xbd55f9ee	-0.052240305
255	0xbc3343bb	-0.010941441

conv3.bias f4 [32]
0	0xbdb79cd6	-0.08965461
1	0xbd614885	-0.0550008
2	0xbe22ed26	-0.15910777
3	0x3e2efa52	0.17087677
4	0x3df3c516	0.119028255
5	0x3d54c020	0.051941037
6	0xbd6c429f	-0.057680722
7	0xbdb9e947	-0.09077697
8	0x3deea8e0	0.11653304
9	0x3dd1b062	0.102387205
10	0x3cc7be02	0.024382595
11	0xbcacc94c	-0.02109208
12	0x3cd19eb4	0.02558837
13	0x3e32cc2b	0.17460696
14	0x3da12e50	0.078701615
15	0x3d9b39fa	0.075794175
16	0x3dfa81cb	0.12231787
17	0xbe19cbb0	-0.15019107
18	0xbe19ddb6	-0.15025982
19	0xbdc5f785	-0.09666351
20	0x3e213607	0.15743266
21	0xbca86667	-0.020556642
22	0x3e03528d	0.1282446
23	0xbd2cf589	-0.042226348
24	0xbc357849	-0.0110760415
25	0xbdd6c158	-0.10486096
26	0xbe19803d	-0.14990325
27	0x3dc97a7b	0.098378144
28	0x3e1b680a	0.15176407
29	0x3e07335e	0.13203189
30	0x3cf7e0fc	0.030258648
31	0x3d85efb3	0.065398596

depthwise_conv4.weight f4 [32, 1, 3, 3]
0	0xbe88100d	-0.26574746
1	0xbca41ad7	-0.02003233
2	0x3d98f4bd	0.07468555
3	0x3e9b6ece	0.30357975
4	0xbe9b7c30	-0.30368185
5	0xbde3db15	-0.11125771
6	0xbe2d7309	-0.16938414
7	0xbe519afa	-0.20469275
8	0x3e63aa11	0.22232844
9	0x3e9dbc1b	0.30807576
10	0x3e067d2a	0.13133684
11	0x3e8dc88f	0.27692077
12	0xbdcb6dce	-0.09933053
13	0x3d2aff6c	0.041747496
14	0xbea146db	-0.3149937
15	0xbea3fc41	-0.32028392
16	0x3e9c3b48	0.30513978
17	0xbe2601d7	-0.1621164
18	0xbe8cd42a	-0.27505618
19	0xbdb32e22	-0.087490335
20	0x3e9548fd	0.29157248
21	0xbe01895b	-0.12650053
22	0xbc05cc0a	-0.0081663225
23	0xbea4c042	-0.3217793
24	0xbe32b69c	-0.17452472
25	0x3dc9c794	0.0985252
26	0xbd50ff9a	-0.05102501
27	0xbdc05ce3	-0.09392717
28	0xbd24b9d0	-0.040216267
29	0xbe8c23a6	-0.27370948
30	0xbdb46e0e	-0.08810054
31	0x3d82ba9d	0.0638325
32	0x3e08d430	0.13362193
33	0xbe87cd7f	-0.2652397
34	0x3e2bdd21	0.16783573
35	0x3e52d9f1	0.2059095
36	0x3e80d9c2	0.25166136
37	0x3d92b53c	0.07163474
38	0x3e9af6aa	0.30266315
39	0xbdc30847	-0.09523063
40	0x3e8120e3	0.25220403
41	0x3dd58eff	0.10427665
42	0xbe48d6fc	-0.1961326
43	0xbe4ab48f	-0.1979544
44	0x3e340908	0.1758157
45	0x3c3683de	0.011139838
46	0xbe201433	-0.15632705
47	0x3dc78670	0.09742439
48	0xbe0558df	-0.13022183
49	0x3e818bbd	0.25301924
50	0x3da18d02	0.07888223
51	0x3cb4ca59	0.022069143
52	0x3ce57382	0.02800918
53	0x3e50334a	0.20332065
54	0x3d8ff0b2	0.07028331
55	0xbcae8794	-0.021304883
56	0xbd80c93d	-0.06288383
57	0xbdeee1e7	-0.11664181
58	0x3e1c059d	0.15236516
59	0x3e94c5be	0.29057115
60	0xbd2faf10	-0.042891562
61	0xbe8961dc	-0.26832473
62	0xbe60bb62	-0.21946481
63	0x3ea9ea39	0.3318651
64	0x3e0b9a38	0.13633049
65	0x3e94b349	0.29043034
66	0x3df531a1	0.119723566
67	0xbe31261d	-0.17299695
68	0xbd633b74	-0.05547662
69	0xbd54ca44	-0.051950708
70	0x3e0750a1	0.13214351
71	0xbe6232d2	-0.22089699
72	0x3e11d72a	0.14242235
73	0xbd0ae7ba	-0.033912398
74	0xbde22943	-0.11043026
75	0x3e5b6efd	0.21429057
76	0x3db3cb3d	0.08778999
77	0xbe71e765	-0.23623426
78	0xbd01fa56	-0.03173288
79	0xbe88d4bd	-0.26724806
80	0x3e2b3aa3	0.16721587
81	0x3dbdac78	0.092614114
82	0x3e3cbe8d	0.18432064
83	0x3c64af57	0.01395782
84	0x3eaa054a	0.3320716
85	0xbe66836c	-0.22511071
86	0xbe9cdb6c	-0.30636156
87	0x3e200966	0.15628585
88	0x3e2182c9	0.15772547
89	0x3e814206	0.25245684
90	0x3eaa0a44	0.33210957
91	0x3e9e58ab	0.30927023
92	0x3cc88d27	0.02448137
93	0x3e980007	0.2968752
94	0x3e901ff6	0.28149384
95	0xbe44d550	-0.19221997
96	0x3d330045	0.04370143
97	0x3e763a01	0.24045564
98	0x3e425e41	0.18981268
99	0x3e6e5965	0.23276289
100	0x3e91fbee	0.2851252
101	0xbe68581f	-0.22689866
102	0xbe862233	-0.26197967
103	0x3e69fd62	0.22850564
104	0x3e4cebf9	0.20011891
105	0x3e6391b2	0.22223547
106	0x3c14cc06	0.009081846
107	0x3e38a4b1	0.18031575
108	0xbc8a7825	-0.016902993
109	0xbea8068e	-0.328175
110	0xbe9a015b	-0.3007916
111	0xbde20694	-0.11036411
112	0xbe0d427a	-0.1379489
113	0x3d982438	0.07428783
114	0xbc24a687	-0.010049469
115	0x3e950455	0.29104868
116	0xbe6f4995	-0.23367913
117	0xbc0211ef	-0.007938846
118	0xbd2742b8	-0.040835112
119	0xbdf8d7b9	-0.12150521
120	0x3e546405	0.2074128
121	0x3ea760fa	0.32691175
122	0xbb97b0f1	-0.0046292474
123	0x3dbda4f1	0.09259976
124	0x3e5fbd1b	0.21849482
125	0xbd7aff55	-0.06127866
126	0x3e01e3b1	0.12684514
127	0x3e37a596	0.1793426
128	0x3c9eca65	0.019383619
129	0x3e84ecef	0.25962016
130	0x3e903862	0.28168017
131	0xbd7baa92	-0.061441965
132	0xbc69c150	-0.014267281
133	0x3cd13956	0.025540035
134	0xbea5ca0d	-0.32380715
135	0xbdd77055	-0.105194725
136	0x3e8f4cd2	0.27988297
137	0x3e88d87d	0.26727667
138	0xbe34fda4	-0.17674881
139	0x3de7e765	0.11323432
140	0xbe04aca2	-0.12956479
141	0x3e797efb	0.24364845
142	0xbe87fe27	-0.2656109
143	0xbd83da09	-0.06438071
144	0xbe91e184	-0.28492367
145	0x3ea74aee	0.32674354
146	0x3e8b4f73	0.27209052
147	0xbe65d671	-0.22445084
148	0xbd7765ed	-0.06039994
149	0xbe23cdd8	-0.15996492
150	0xbe245abf	-0.16050242
151	0x3ea05f3c	0.31322658
152	0xbe376f43	-0.17913537
153	0x3df114e0	0.1177156
154	0xbe8c1846	-0.2736227
155	0xbe322e6a	-0.17400518
156	0x3e65ec12	0.22453335
157	0x3e571333	0.21003418
158	0xbe4f2b10	-0.20231271
159	0xbe6788ed	-0.22610827
160	0xbd85e5c1	-0.06537963
161	0x3ea296d6	0.31755704
162	0xbe1dc2df	-0.15406369
163	0x3e02d0df	0.1277499
164	0x3e97fba3	0.2968417
165	0xbe594951	-0.21219374
166	0xbd2a625f	-0.04159772
167	0x3e249000	0.16070557
168	0x3dca2167	0.09869652
169	0x3dbd9fbc	0.092589825
170	0xbe61b63e	-0.22042176
171	0xbdf50067	-0.11962967
172	0xbe755094	-0.2395652
173	0x3e8da76b	0.27666792
174	0xbe5b846e	-0.21437237
175	0x3e5a35f8	0.2130965
176	0xbea59e36	-0.32347268
177	0xbd14dad6	-0.03634151
178	0x3e6fa79b	0.2340378
179	0xbcd1ff9e	-0.025634583
180	0xbd56bdb9	-0.052427027
181	0x3e9315f0	0.28727674
182	0xbe9638c2	-0.29340178
183	0x3df93ac5	0.121694125
184	0xbe56622a	-0.20935884
185	0xbe01a024	-0.12658745
186	0xbe39fdb6	-0.1816319
187	0x3e8e23c3	0.2776166
188	0xbe07f30c	-0.13276309
189	0x3e3a0183	0.18164639
190	0xbd0f5174	-0.03498979
191	0x3e1b68f7	0.1517676
192	0x3e903a6d	0.28169575
193	0xbe82a09f	-0.2551317
194	0xbc970675	-0.018435696
195	0x3debea46	0.115192935
196	0xbe998f4f	-0.29992148
197	0x3ea33b95	0.31881395
198	0x3d7621fe	0.06009101
199	0xbe494ab7	-0.19657408
200	0xbe67fa94	-0.22654182
201	0xbd97961d	-0.07401679
202	0xbe01dd50	-0.1268208
203	0xbe7e74cc	-0.24849242
204	0xbdd3d49c	-0.103432864
205	0xbe5e3253	-0.21698885
206	0x3995da49	0.0002858213
207	0xbdc49934	-0.09599534
208	0xbdcfbe4e	-0.101437196
209	0xbd225533	-0.039632034
210	0xbe91df93	-0.28490886
211	0xbe71c009	-0.23608412
212	0xbe71e7f4	-0.2362364
213	0x3d9a593b	0.075365506
214	0x3d230e7e	0.039808743
215	0x3e4d4a94	0.2004798
216	0xbdd9e4bc	-0.10639331
217	0x3e7959c2	0.24350646
218	0xbe810119	-0.2519615
219	0x3d38ac5f	0.04508626
220	0x3d9ac8e4	0.07557848
221	0x3dfa678e	0.12226783
222	0xbe4c092f	-0.19925378
223	0x3e85967c	0.26091373
224	0xbdf5859a	-0.11988373
225	0x3e9b63c2	0.30349547
226	0x3e545734	0.2073639
227	0x3ea7973e	0.32732576
228	0x3ea6844f	0.32522818
229	0x3ea1c933	0.31598815
230	0x3e98d0df	0.29846856
231	0xbe10eded	-0.14153261
232	0xbe74b828	-0.23898375
233	0xbd4e8814	-0.050422743
234	0xbe8e9fff	-0.27856442
235	0xbe51fda1	-0.20506908
236	0x3e57eff5	0.2108763
237	0x3be5d2ee	0.00701367
238	0xbd94e11b	-0.07269498
239	0xbdd52526	-0.10407476
240	0xbd899630	-0.06718099
241	0xbdbbd808	-0.09172064
242	0xbd58c55f	-0.052922603
243	0x3e41d37d	0.18928333
244	0xbde48c7c	-0.11159608
245	0x3db1f10b	0.086885534
246	0xbe7e0bb3	-0.2480915
247	0xbe989b43	-0.29805955
248	0xbe9caf08	-0.30602288
249	0xbe38f4f8	-0.18062198
250	0xbe043fc0	-0.12914944
251	0x3e493efd	0.19652934
252	0x3e867e83	0.26268396
253	0x3dd09f0a	0.10186584
254	0x3e8338e7	0.2562935
255	0x3e3d2f9b	0.18475191

depthwise_conv4.bias f4 [32]
0	0x3de1a64a	0.11018045
1	0xbcad24ef	-0.021135775
2	0x3e603cb2	0.21898153
3	0xbc7d82f2	-0.015473114
4	0x3d32cf56	0.043654762
5	0xbe90fad7	-0.28316376
6	0xbe8f611a	-0.2800377
7	0x3da26065	0.07928542
8	0xbe3224a0	-0.17396784
9	0x3c3f0f57	0.011661372
10	0x3df8d164	0.12149313
11	0x3e6aceac	0.22930402
12	0x3e2f3d9b	0.17113344
13	0x3e6e44af	0.23268388
14	0x3e2e7aa2	0.17038968
15	0xbe33f534	-0.17574006
16	0x3d71c7dd	0.059028495
17	0xbe9d002c	-0.30664194
18	0x3e10b860	0.14132833
19	0xbc1141ab	-0.008865754
20	0xbe99644f	-0.29959342
21	0x3e65ae26	0.22429714
22	0x3ea7b0a7	0.32751963
23	0xbe9fb49c	-0.31192482
24	0xbe6a3c05	-0.22874458
25	0xbc0f0daa	-0.008731285
26	0x3de615b2	0.11234607
27	0x3cea45e9	0.028597789
28	0x3e1f6f8e	0.15569898
29	0xbe114e12	-0.14189938
30	0xbe4a5c17	-0.19761692
31	0x3e9be2b9	0.30446413

group_norm4.weight f4 [32]
0	0x3f8018aa	1.0007527
1	0x3f7fcf99	0.99926144
2	0x3f8000d1	1.0000249
3	0x3f801456	1.0006206
4	0x3f800a68	1.0003176
5	0x3f7fcf8d	0.9992607
6	0x3f800a53	1.0003151
7	0x3f800088	1.0000162
8	0x3f801b6d	1.000837
9	0x3f7fc430	0.99908733
10	0x3f801406	1.0006111
11	0x3f7ffd58	0.99995947
12	0x3f7ff8db	0.999891
13	0x3f7fb580	0.9988632
14	0x3f7f3ba2	0.9970037
15	0x3f800c77	1.0003804
16	0x3f803071	1.0014783
17	0x3f8007d4	1.0002389
18	0x3f8004ab	1.0001425
19	0x3f7fdc45	0.9994548
20	0x3f801076	1.0005023
21	0x3f7fe412	0.9995738
22	0x3f7f83e2	0.9981061
23	0x3f7fef60	0.9997463
24	0x3f7ff14b	0.9997756
25	0x3f7fb765	0.9988921
26	0x3f7f5599	0.99739987
27	0x3f7f1791	0.99645334
28	0x3f7fcf9e	0.99926174
29	0x3f800785	1.0002295
30	0x3f7fdfd6	0.9995092
31	0x3f802baa	1.0013325

group_norm4.bias f4 [32]
0	0x3a1b9783	0.0005935358
1	0x3a451845	0.000751857
2	0x3924a4dc	0.00015701674
3	0xba38b474	-0.00070459326
4	0x3954ce0e	0.00020294657
5	0x3a13d339	0.00056390796
6	0xb9878f5a	-0.00025856012
7	0xb5d75734	-1.6044128e-06
8	0xba55ad62	-0.0008151141
9	0x3a2f8801	0.00066959864
10	0xba8902bf	-0.0010453089
11	0xb8ad09b9	-8.251094e-05
12	0xba50ae19	-0.0007960513
13	0xbac2c963	-0.0014861043
14	0xba24763b	-0.0006273721
15	0xb9c1bada	-0.00036951044
16	0x3a3d4902	0.0007220657
17	0xb97620ce	-0.00023472609
18	0x391ade64	0.00014769431
19	0x3907a466	0.00012935846
20	0xba083378	-0.0005195658
21	0xb93db042	-0.00018090106
22	0xba532fef	-0.0008056154
23	0x39c70f23	0.00037967516
24	0x395b8fed	0.00020939084
25	0xba6897bb	-0.0008872707
26	0xbb25f647	-0.0025323795
27	0xbb26b39f	-0.0025436652
28	0xba259000	-0.0006315708
29	0xb9919fb0	-0.00027775532
30	0x3a19bdc3	0.00058647635
31	0x3ac27f89	0.0014839034

depthwise_conv5.weight f4 [32, 1, 3, 3]
0	0x3e86b000	0.26306152
1	0x3e714014	0.235596
2	0xbe34d902	-0.17660907
3	0xbe258d57	-0.16167198
4	0xbe8f90c7	-0.28040144
5	0xbdd6feba	-0.10497804
6	0x3e356172	0.17712954
7	0x3e9211b3	0.28529128
8	0xbe347900	-0.17624283
9	0xbd9bdfe1	-0.07611061
10	0x3cbbb9a6	0.022915673
11	0x3e71a08d	0.23596402
12	0x3e879c21	0.26486304
13	0x3dbf541b	0.09342214
14	0x3e94ff1b	0.2910088
15	0x3df2c6d8	0.11854333
16	0xbd2ef141	-0.042710546
17	0xbe3613ba	-0.17780963
18	0x3e3120b5	0.17297633
19	0x3ea1c88f	0.31598327
20	0x3e00423d	0.12525268
21	0xbdc99770	-0.098433375
22	0xbb9efa52	-0.004851618
23	0xbdeaf715	-0.114729084
24	0x3ea0ba1f	0.31392
25	0x3dac444c	0.08411464
26	0x3de0febc	0.10986087
27	0xbe4e966c	-0.20174569
28	0xbd8b111c	-0.06790373
29	0xbdee8d4f	-0.11648046
30	0x3e8a93e6	0.27065963
31	0xbb44b793	-0.0030016645
32	0x3ddb82f0	0.10718334
33	0xbdfa9d65	-0.12237052
34	0x3e8d7cff	0.27634427
35	0x3ea36e48	0.31920075
36	0x3e6f79c3	0.23386292
37	0xbd8c7142	-0.0685754
38	0xbe9792ca	-0.2960418
39	0x3ea59d11	0.32346395
40	0x3ea64e6b	0.32481703
41	0x3e71fa74	0.23630697
42	0x3cc6b2b7	0.02425514
43	0x3e2f858f	0.17140792
44	0xbdb27055	-0.08712832
45	0xbe53b5bc	-0.20674795
46	0xbe8d8828	-0.2764294
47	0xbdbf03ad	-0.09326873
48	0x3e7f3873	0.24923877
49	0x3dc5c906	0.09657483
50	0xbe0eed86	-0.13957796
51	0xbdef9674	-0.116986185
52	0xbda3fbb5	-0.08006994
53	0xbd3b3bd7	-0.045711365
54	0xbe462117	-0.1934856
55	0x3cc6350c	0.024195217
56	0xbea7b46d	-0.3275484
57	0x3d6dc94d	0.058053304
58	0xbe512e14	-0.20427734
59	0xbe8438a7	-0.25824472
60	0xbcd8816e	-0.026428904
61	0xbe5f58e3	-0.21811251
62	0xbce8b8cc	-0.02840843
63	0x3e40132b	0.18757312
64	0xbdb22b9a	-0.086997226
65	0xbd46c992	-0.048532076
66	0xbe0afc1c	-0.13572735
67	0xbe2bb3ac	-0.16767758
68	0xbd436592	-0.047704287
69	0x3c605a72	0.013693439
70	0xbe943a95	-0.28950945
71	0xbe978d72	-0.29600102
72	0x3d288f99	0.04115257
73	0x3d971f3a	0.07379003
74	0xbe6ff187	-0.23431979
75	0x3e514132	0.20435026
76	0xbe3aa34e	-0.18226358
77	0x3e959a37	0.2921922
78	0x3d302e89	0.04301313
79	0x3d2ac5a0	0.041692376
80	0x3daa4cbc	0.08315417
81	0xbe0142a2	-0.12623075
82	0x3e7ca9e9	0.2467419
83	0xbdfb1c7c	-0.12261292
84	0x3ea1dc92	0.31613594
85	0xbd92ebdb	-0.07173892
86	0x3e997c9f	0.2997789
87	0x3e1a7ba7	0.15086232
88	0x3d19ec1c	0.037578687
89	0xbdacf75d	-0.08445618
90	0xbd14f0b5	-0.03636237
91	0xbd84ecac	-0.06490454
92	0xbdc05e21	-0.09392954
93	0x3ea3c27a	0.3198431
94	0xbea713e3	-0.3263236
95	0xbd615bac	-0.055019066
96	0xbe451a2b	-0.19248264
97	0x3d18c3ee	0.037296228
98	0x3e1542b1	0.14576222
99	0x3e086dc1	0.13323118
100	0x3e99ad55	0.30015054
101	0xbd95413e	-0.072878346
102	0xbe028302	-0.12745288
103	0x3e6e12b8	0.23249328
104	0xbdd3e771	-0.10346878
105	0xbdaef974	-0.08543673
106	0xbd05c5cf	-0.032659348
107	0xbe81ab82	-0.25326163
108	0xbdbbebb3	-0.091758154
109	0xbe788df6	-0.24272904
110	0x3e5d5b10	0.21616769
111	0xbd8f95c7	-0.0701099
112	0xbe84b0f0	-0.25916243
113	0xbe7c9282	-0.24665263
114	0x3e42dfee	0.19030735
115	0x3e283df9	0.1642989
116	0xbe9bc315	-0.30422273
117	0x3e7f7863	0.24948268
118	0x3e0d2d09	0.13786711
119	0xbe37ba12	-0.17942074
120	0xbe0a952c	-0.13533467
121	0xbcffc23a	-0.031220544
122	0xbc3499f7	-0.011023036
123	0xbd8a394e	-0.06749211
124	0xbda77147	-0.08175903
125	0xbe97c444	-0.29641926
126	0x3e32edc7	0.17473517
127	0xbe4a99a0	-0.19785166
128	0x3e3c150d	0.18367405
129	0xbcc26b06	-0.023732673
130	0x3df52393	0.11969676
131	0x3d32f39f	0.043689366
132	0x3e951e93	0.2912489
133	0x3d00edc9	0.03147677
134	0x3e411d04	0.18858725
135	0x3e80fdc5	0.2519361
136	0xbdb491b3	-0.088168524
137	0xbe6007b3	-0.21877937
138	0x3db5ae1f	0.088711016
139	0xbe0c8f7d	-0.13726611
140	0x3ea5cdd9	0.32383612
141	0xbe425f7e	-0.1898174
142	0x3e505a91	0.20347048
143	0xbe184682	-0.14870647
144	0x3e3cee8b	0.18450372
145	0xbe3e9320	-0.18610811
146	0xbe9b8493	-0.30374584
147	0xbd1a0483	-0.03760196
148	0x3e0b1a5e	0.13584277
149	0x3d8383c2	0.06421615
150	0xbe6e149c	-0.2325005
151	0x3e12f0aa	0.14349619
152	0xbdaef452	-0.08542694
153	0xbdb756c7	-0.08952098
154	0xbd5f3226	-0.054491185
155	0xbdf7f2b0	-0.12106836
156	0xbe8969a7	-0.2683842
157	0xbe7738aa	-0.2414271
158	0xb93a9a80	-0.00017795898
159	0x3e8acdce	0.27110142
160	0x3e6f819b	0.23389284
161	0x3e916369	0.28396156
162	0xbc5c0d7c	-0.013430949
163	0x3d8a2c22	0.06746699
164	0x3ea359dc	0.31904495
165	0x3ddfda50	0.10930312
166	0xbe8bcb8f	-0.2730374
167	0xbe8d2d7c	-0.27573764
168	0xbd31a1dc	-0.04336725
169	0xbea08043	-0.31347856
170	0xbdadec26	-0.08492307
171	0x3bb3d9b2	0.005488598
172	0xbdeb8a93	-0.1150104
173	0x3e43cc7d	0.19120975
174	0xbe0e175f	-0.13876103
175	0x3d26fcad	0.040768314
176	0xbde4243d	-0.111397244
177	0xbe908a3a	-0.28230458
178	0x3e731cb3	0.23741417
179	0xbd6dea1f	-0.058084603
180	0x3e1b3127	0.15155469
181	0xbd3e2590	-0.04642254
182	0x3e0b4b2d	0.13602896
183	0x3cb186bc	0.021670692
184	0x3e758414	0.23976165
185	0xbe5c40b8	-0.21509063
186	0xbe47bdaf	-0.19505952
187	0xbce5c121	-0.028046193
188	0xbe3a52d0	-0.18195653
189	0xbe5468f9	-0.20743169
190	0x3ccf2fb2	0.025291298
191	0x3e1b7992	0.15183094
192	0xbdbb1c64	-0.091362745
193	0x3d1de679	0.038549874
194	0xbcf9c547	-0.030489577
195	0x3e19acc4	0.15007311
196	0x3e86fc3e	0.2636432
197	0x3dfe75a1	0.1242478
198	0x3d6fa2cf	0.058504876
199	0x3d8bb279	0.0682115
200	0x3d8aefbb	0.06784006
201	0xbe3f555d	-0.18684907
202	0xbdcc1f75	-0.099669375
203	0xbd43d28b	-0.04780821
204	0x3ea915e1	0.33024505
205	0x3b11acd3	0.0022228255
206	0x3dd88053	0.10571351
207	0x3daaee47	0.08346229
208	0x3e0a74ee	0.13521168
209	0x3e2e6b53	0.17033128
210	0xbe030050	-0.12793088
211	0xbe84c4a5	-0.25931278
212	0xbe9ea69b	-0.30986485
213	0xbe5f1a93	-0.21787481
214	0x3d9c3aa7	0.076283745
215	0x3b5fc6f4	0.0034145685
216	0x3cb8d3f6	0.022562008
217	0xbb08397e	-0.002078622
218	0x3e9d598c	0.3073238
219	0xbe85375d	-0.260188
220	0xbcccd245	-0.025002608
221	0xbe941f61	-0.2893019
222	0x3e2f4be7	0.17118798
223	0x3e778b87	0.24174319
224	0xbe44e698	-0.1922859
225	0xbe6fa17b	-0.23401444
226	0x3e31a9a7	0.17349873
227	0xbd282abf	-0.04105639
228	0xbe643a03	-0.22287755
229	0x3c5ed13c	0.01359969
230	0x3de7a6a0	0.11311078
231	0x3e938920	0.28815556
232	0xbddb4da4	-0.10708168
233	0xbda73aa3	-0.08165481
234	0xbd166685	-0.036718864
235	0x3db5c0d2	0.08874668
236	0x3c41e0b4	0.011833359
237	0xbe83fd3f	-0.2577915
238	0x3ea4d364	0.32192528
239	0x3e9bed1e	0.30454344
240	0x3e864ec5	0.2623197
241	0xbe6bfb1e	-0.23045012
242	0x3cb514fd	0.022104735
243	0xbe1ec6d2	-0.15505531
244	0x3e35ffbe	0.17773339
245	0xbc156d79	-0.009120339
246	0xbe7eef9b	-0.2489609
247	0xbe070e40	-0.1318903
248	0x3e8413d6	0.25796384
249	0x3e30d939	0.17270364
250	0x3ea460be	0.32105058
251	0xbe8ef2e5	-0.2791969
252	0x3d2240e2	0.03961266
253	0xbea3b6ac	-0.31975305
254	0xbbdafb35	-0.0066827782
255	0x3ea8357f	0.32853314

depthwise_conv5.bias f4 [32]
0	0x3d323361	0.04350603
1	0xbda9a000	-0.08282471
2	0xbe4ef36d	-0.20210047
3	0x3d7a4277	0.061098542
4	0xbe0f869f	-0.14016198
5	0x3ea63612	0.32463127
6	0x3e0719f2	0.13193491
7	0xbda12a2a	-0.0786937
8	0x3c187bf2	0.009306895
9	0x3de52680	0.11188984
10	0x3dfc5f8e	0.12322913
11	0xbdbb9c44	-0.09160665
12	0x3e6f3f67	0.2336403
13	0xbe9f91b9	-0.31165865
14	0xbe2e88bc	-0.17044348
15	0x3e04a564	0.12953717
16	0xbe92ca33	-0.2866989
17	0xbe1c9170	-0.15289855
18	0xbe27152f	-0.16316675
19	0x3dffff70	0.12499893
20	0xbe275a70	-0.16343093
21	0xbdfea29a	-0.124333575
22	0x3e3cdd30	0.18443751
23	0x3e992668	0.29912114
24	0xbe567219	-0.20941962
25	0xbe8fed1d	-0.2811059
26	0x3e711af5	0.2354544
27	0xbd92c0bb	-0.07165667
28	0x3e305ac5	0.17222126
29	0x3cda7f3b	0.026671996
30	0xbe84af30	-0.25914907
31	0xbc87c6f1	-0.016574355

group_norm5.weight f4 [32]
0	0x3f7fe186	0.99953496
1	0x3f7fc090	0.999032
2	0x3f7fd359	0.99931866
3	0x3f802642	1.0011675
4	0x3f803cd9	1.0018569
5	0x3f800ce4	1.0003934
6	0x3f7fab67	0.99870914
7	0x3f7ff60a	0.999848
8	0x3f800c18	1.0003691
9	0x3f7fd9f3	0.9994194
10	0x3f803c39	1.0018378
11	0x3f8009d1	1.0002996
12	0x3f7f3b8d	0.9970024
13	0x3f7fcf2d	0.999255
14	0x3f7feb32	0.99968255
15	0x3f7fd335	0.9993165
16	0x3f8033d3	1.0015815
17	0x3f800037	1.0000066
18	0x3f7fe3cf	0.99956983
19	0x3f800022	1.000004
20	0x3f7fd383	0.99932116
21	0x3f8006db	1.0002092
22	0x3f7feed9	0.9997383
23	0x3f7ff9bc	0.9999044
24	0x3f7fdcd4	0.9994633
25	0x3f801b36	1.0008304
26	0x3f7fbc92	0.9989711
27	0x3f80217b	1.0010217
28	0x3f7fe7c2	0.9996301
29	0x3f7fd404	0.99932885
30	0x3f7fde54	0.9994862
31	0x3f7fda7b	0.9994275

group_norm5.bias f4 [32]
0	0xba28e62b	-0.0006442989
1	0x3a81611d	0.0009870861
2	0x3a43fcc5	0.0007476325
3	0x3a9a4b7e	0.0011771766
4	0xbabdd0cf	-0.0014481785
5	0x39cf2479	0.0003950929
6	0x3a9e2278	0.0012064716
7	0x394a9fd4	0.00019323762
8	0x38a5a9b9	7.8994264e-05
9	0xb9a8c46f	-0.00032189811
10	0x39e8e7c8	0.0004442318
11	0xb9c0e6ab	-0.00036792955
12	0xbb55b9b3	-0.0032611906
13	0x3a28fe4b	0.0006446584
14	0x37fad8e8	2.9903327e-05
15	0xba20bf48	-0.0006132019
16	0xba9b241f	-0.0011836326
17	0x37b65bcf	2.1738842e-05
18	0x3a0b021c	0.00053027435
19	0xb960b830	-0.0002143092
20	0x3a36d707	0.00069747906
21	0xb9830aa1	-0.00024994186
22	0x3a3f0cec	0.0007287997
23	0xb956e2ef	-0.0002049317
24	0x3a0c3dfa	0.00053498114
25	0xba587584	-0.0008257257
26	0xba34b7f9	-0.0006893869
27	0xba813c94	-0.0009859973
28	0xb9d2ca0f	-0.00040204867
29	0x3a50f594	0.00079711643
30	0x39efebe6	0.0004576139
31	0x3a0c98bd	0.0005363336

depthwise_conv6.weight f4 [64, 1, 3, 3]
0	0x3db1aabf	0.08675145
1	0x3e8fc14e	0.28077167
2	0xbdc15ed5	-0.09441916
3	0xbd3dfe69	-0.046385203
4	0xbe868a69	-0.26277474
5	0x3e329a75	0.17441733
6	0xbea26058	-0.3171413
7	0xbda8d4d3	-0.08243718
8	0xbe462161	-0.1934867
9	0x3ea1a56e	0.31571525
10	0xbeaa3f40	-0.3325138
11	0x3e51ca10	0.20487237
12	0x3e1b5a57	0.1517118
13	0x3e3aeb64	0.18253857
14	0xbd3e23cd	-0.04642086
15	0x3e1bc205	0.15210731
16	0xbcd11d84	-0.02552677
17	0xbdc0445e	-0.0938804
18	0xbe81ee32	-0.2537704
19	0x3cc46e54	0.02397839
20	0xbcf592e2	-0.029977266
21	0xbe8e0c31	-0.27743676
22	0x3e633378	0.22187603
23	0x3c878be6	0.016546201
24	0x3e8c96be	0.27458757
25	0xbd996f7f	-0.07491969
26	0xbe20a551	-0.15688063
27	0x3e9c68cd	0.30548707
28	0xbd471da2	-0.048612244
29	0xbd219606	-0.039449714
30	0xbe549d6b	-0.20763175
31	0x3e5d5827	0.21615659
32	0x3e7bc72d	0.24587698
33	0x3e1e16db	0.15438406
34	0xbe82445f	-0.25442788
35	0xbe4cbb57	-0.1999334
36	0xbda7e6a5	-0.08198289
37	0xbe58d06f	-0.21173261
38	0x3e807f6e	0.2509722
39	0xbea972c7	-0.3309538
40	0xbe807a4e	-0.2509331
41	0x3ea2419f	0.3169069
42	0x3e469e42	0.19396308
43	0xbea4231f	-0.32058045
44	0xbe941afd	-0.2892684
45	0x3ce8c385	0.028413543
46	0x3e0dece3	0.13859896
47	0xbe8dc31e	-0.27687925
48	0xbd8d7a55	-0.069080986
49	0xbd4d15a3	-0.050069463
50	0x3d9c880e	0.07643138
51	0x3e02f87d	0.12790103
52	0x3d0f76a5	0.035025258
53	0xbe6f8bb4	-0.23393136
54	0xbe294d71	-0.16533448
55	0xbe796b80	-0.24357414
56	0xbdbde8f6	-0.092729494
57	0xbe9f2b59	-0.3108776
58	0xbd9b81a4	-0.07593086
59	0xbca41e79	-0.020034062
60	0xbdf34639	-0.11878628
61	0x3da6900c	0.081329435
62	0xbe61af01	-0.22039415
63	0x3dd97c86	0.10619454
64	0xbe8eec1a	-0.27914506
65	0xbe520642	-0.205102
66	0xbd6659a7	-0.056237843
67	0x3e1ba9a6	0.15201434
68	0x3c912370	0.017717093
69	0x3dc47792	0.09593119
70	0xbea74429	-0.3266919
71	0x3d19a774	0.03751321
72	0xbd78a111	-0.06070048
73	0x3e87df27	0.2653744
74	0xbe8fbb88	-0.28072762
75	0xbcb0e672	-0.02159426
76	0x3e58bb67	0.21165238
77	0x3e59c86e	0.21267864
78	0x3d442b14	0.047892645
79	0x3d65a834	0.056068614
80	0xbde3ce10	-0.11123288
81	0xbe005878	-0.12533748
82	0xbce2b0d3	-0.027672207
83	0xbdc3031c	-0.095220774
84	0xbd6cffaf	-0.057861026
85	0x3e8e425e	0.2778501
86	0xbe135b78	-0.14390361
87	0xbd4f8cb3	-0.05067129
88	0xbe9cfe8d	-0.30662957
89	0xbbf6413d	-0.007515101
90	0xbdc63538	-0.096781194
91	0xbb90aa1b	-0.0044148094
92	0xbae17db6	-0.0017203602
93	0x3e5bc54e	0.21461985
94	0x3db4ab63	0.08821752
95	0xbdbabf68	-0.09118539
96	0x3e1e1b80	0.15440178
97	0x3e9de7ac	0.30840814
98	0xbe453efa	-0.19262305
99	0x3d8edb85	0.06975464
100	0x3dabf51b	0.083963595
101	0x3e538b86	0.20658693
102	0xbe8239db	-0.25434765
103	0xbe990947	-0.2988989
104	0xbe7cbf76	-0.24682412
105	0x3d57fd72	0.05273194
106	0xbe6df70a	-0.23238769
107	0xbe30eb4a	-0.17277256
108	0x3e3233c2	0.17402557
109	0x3e7c73e9	0.24653591
110	0xbd4a3056	-0.049362503
111	0xbe355603	-0.17708592
112	0x3ea7e990	0.32795382
113	0x3e1fbc4a	0.1559917
114	0xbe047ce3	-0.12938266
115	0xbe8352a5	-0.2564899
116	0xbe3d2a1c	-0.18473095
117	0x3e6cbeeb	0.23119704
118	0xbe60c60f	-0.21950553
119	0x3e8a6b30	0.27034903
120	0x3d31879b	0.043342214
121	0xbd043abe	-0.032282583
122	0x3d7e82bd	0.0621364
123	0x3e0c9f4a	0.13732639
124	0x3d3c6cb1	0.046002094
125	0x3e858e92	0.26085335
126	0x3d7837a0	0.060599923
127	0x3de8ceb0	0.113675475
128	0x3e950f6b	0.29113325
129	0x3da3ab7e	0.07991694
130	0xbe7bd16c	-0.24591607
131	0xbe3a6253	-0.1820157
132	0x3e989862	0.2980376
133	0x3bf71e79	0.0075414744
134	0x3e23e9db	0.16007178
135	0x3d95590e	0.072923765
136	0xbe41cd88	-0.1892606
137	0x3df642b9	0.12024445
138	0x3e51fc7e	0.20506474
139	0xbea0b6a6	-0.3138935
140	0x3e143f95	0.1447738
141	0x3e668140	0.22510242
142	0x3dcb74c3	0.0993438
143	0xbe4513d8	-0.19245851
144	0x3d271cfb	0.040799122
145	0x3dcdfd8a	0.10058124
146	0x3e9740b3	0.2954155
147	0xbe9d5583	-0.30729303
148	0x3e4b0cd5	0.19829114
149	0x3e5b72fe	0.21430585
150	0xbd4106e0	-0.047125697
151	0xbde3c1f3	-0.11120977
152	0xbe98d782	-0.2985192
153	0x3dc203b0	0.094733596
154	0xbd0714fa	-0.03297899
155	0xbea3dfae	-0.32006592
156	0x3e70ddf5	0.2352217
157	0xbda27566	-0.07932548
158	0xbe2d76b7	-0.16939817
159	0x3d971e45	0.0737882
160	0x3ccf4846	0.025303017
161	0x3e9908d4	0.29889548
162	0xbe93bf95	-0.28857103
163	0x3e917a8e	0.28413814
164	0xbe34cdb8	-0.176566
165	0xbe5aa239	-0.21350946
166	0xbd4c9a12	-0.04995162
167	0xbd83c393	-0.06433787
168	0x3ea13fa6	0.31493872
169	0xbe4536ba	-0.19259158
170	0xbe604bf3	-0.21903972
171	0xbe9839c3	-0.2973157
172	0x3dd701c3	0.10498383
173	0x3ea91d69	0.3303025
174	0xbddf218b	-0.1089507
175	0x3e718423	0.23585562
176	0x3eaa8fd8	0.3331287
177	0x3d26940e	0.04066854
178	0x3e8acd06	0.27109545
179	0xbe922a8a	-0.2854808
180	0xbea81d1c	-0.3283471
181	0xbdec8374	-0.1154851
182	0xbd76691b	-0.06015883
183	0x3dde1abb	0.10844942
184	0xbe8be828	-0.2732556
185	0x3e88359e	0.26603407
186	0xbe3c0947	-0.18362914
187	0xbd0f2f1b	-0.034957033
188	0x3c8117bd	0.01575839
189	0x3e0a5368	0.1350838
190	0xbb84ddbd	-0.0040547536
191	0xbe9d58e9	-0.30731896
192	0x3c2ad799	0.010427379
193	0xbe4895b1	-0.19588353
194	0xbdfc03e4	-0.123054296
195	0xbe0a4fa4	-0.13506943
196	0x3e22d9dc	0.1590342
197	0xbe72be59	-0.23705424
198	0x3e869f64	0.2629348
199	0xbe6a295e	-0.22867343
200	0xbcda2602	-0.026629452
201	0x3d1f1e1d	0.038847078
202	0x3dc41d4f	0.09575903
203	0x3e8a1d22	0.26975352
204	0xbe8858c6	-0.2663023
205	0x3e843fa3	0.258298
206	0xbe64e6e7	-0.22353707
207	0xbe935021	-0.2877207
208	0x3e46e5ff	0.19423674
209	0xbd110dd4	-0.03541358
210	0x3e2c8fa3	0.16851668
211	0xbd9c6503	-0.07636454
212	0xbdc2f6fe	-0.09519766
213	0x3e6c1801	0.23056032
214	0xbe88b3f8	-0.26699805
215	0xbdb95ccd	-0.090509035
216	0x3bafe46b	0.0053678057
217	0xbd384d1a	-0.044995405
218	0xbe52fc9f	-0.2060418
219	0xbde8fb8c	-0.11376104
220	0xbdb4260b	-0.087963186
221	0x3e91e529	0.28495148
222	0xbe186924	-0.14883858
223	0x3de77391	0.113013394
224	0x3e8bc0a3	0.27295408
225	0xbe75caae	-0.24003097
226	0x3e12f043	0.14349465
227	0x3e016332	0.12635496
228	0x3deefc24	0.11669186
229	0xbe8ac273	-0.27101478
230	0x3e801ec7	0.2502348
231	0x3e9622d1	0.29323438
232	0xbd7a5e84	-0.061125293
233	0x3e9ba5aa	0.3039983
234	0x3ea5cb22	0.3238154
235	0xbe79fb2d	-0.24412222
236	0x3e86f04c	0.26355207
237	0xbcd6f44f	-0.026239542
238	0xbcb87e8c	-0.02252128
239	0xbeaa04fc	-0.33206928
240	0xbea992f1	-0.3311992
241	0x3dbc5591	0.09196008
242	0x3e9c8b90	0.30575228
243	0x3e69e354	0.22840625
244	0xbe7a9440	-0.24470615
245	0xbbfc4597	-0.0076987254
246	0xbe4a7351	-0.19770552
247	0xbe074e9b	-0.1321358
248	0xbe62f598	-0.22163999
249	0x3dfb969a	0.12284584
250	0x3cbf40fe	0.02334642
251	0x3d070a45	0.03296878
252	0xbda2e846	-0.07954459
253	0x3e5be09f	0.21472405
254	0xbea5e0fd	-0.32398215
255	0x3e523ac3	0.20530228

depthwise_conv6.bias f4 [64]
0	0x3d1e553d	0.03865551
1	0x3ea21fb7	0.31664822
2	0xbc37bfee	-0.011215193
3	0xbe8773a5	-0.26455417
4	0x3ea3e4d6	0.32010525
5	0xbe575985	-0.21030243
6	0x3cc4e65d	0.024035627
7	0xbe8c11ff	-0.2735748
8	0x3d8f20ce	0.06988679
9	0x3e7aa619	0.24477424
10	0x3d99cc8d	0.07509718
11	0x3e2e60b2	0.17029074
12	0xbe8aa119	-0.27076033
13	0x3d8bcf87	0.06826692
14	0xbe8467cb	-0.25860438
15	0x3e025250	0.12726712
16	0x3df34a4e	0.11879407
17	0xbe36440a	-0.17799392
18	0x3e7cc781	0.2468548
19	0x3e963134	0.29334414
20	0xbea39a36	-0.3195359
21	0xbe1d29a2	-0.15347913
22	0x3cb8e91f	0.022572098
23	0x3e74258a	0.23842445
24	0x3d01a469	0.031650934
25	0x3c3c7e6c	0.011504751
26	0x3dfe2490	0.124093175
27	0x3ea33ae6	0.31880873
28	0xbe81560d	-0.25260964
29	0x3e28e73a	0.16494456
30	0x3ddf4272	0.10901345
31	0xbdc07dcf	-0.09398996
32	0x3d7576a3	0.059927594
33	0x3d9ba6fe	0.076002106
34	0x3d8536da	0.06504603
35	0xbda9f63b	-0.08298918
36	0xbe4c92dc	-0.19977897
37	0x3e6efb8f	0.2333815
38	0x3e13d532	0.14436796
39	0x3dd45a37	0.103687696
40	0x3e965f78	0.29369712
41	0x3db33e8e	0.08752166
42	0x3e05b450	0.13057065
43	0x3e535cf1	0.20640923
44	0xbe20a60b	-0.1568834
45	0x3e9f28b8	0.31085753
46	0xbe37b793	-0.17941122
47	0xbea59bbb	-0.32345375
48	0x3dda3ea6	0.106564805
49	0x3e4b8656	0.19875464
50	0xbe1f5bd3	-0.15562372
51	0xbea48bb8	-0.32137847
52	0xbb72a90e	-0.0037027034
53	0xbdbe2050	-0.09283507
54	0xbdccdd04	-0.10003093
55	0xbe81a010	-0.2531743
56	0xbd885eaa	-0.06658681
57	0xbcc3a8b0	-0.023884147
58	0xbe2c2fe5	-0.16815145
59	0xbe6faf91	-0.23406817
60	0x3b8de769	0.0043305648
61	0x3bcc065a	0.006226343
62	0x3e7bd661	0.24593498
63	0x3e9ad5ea	0.30241328
