data/oceandark/result/Epoch99.pth (torch, 322220 bytes, 14 tensors)

e_conv1.weight f4 [32, 3, 3, 3]
000000 85 0f 09 bd 5e 8d 06 bd 9f 7e 96 bc 09 0f 82 bc
       -0.033462066 -0.032849662 -0.018370925 -0.01587631
000010 16 ff ce bc 80 0c 12 bd 15 c2 82 bc 7c 52 a9 bc
       -0.025268119 -0.035656452 -0.015961686 -0.020669214
000020 89 8b 17 bd aa a5 09 bd b7 af e6 3b 51 a1 63 bc
       -0.036998305 -0.033605255 0.00703999 -0.013893441
000030 3b 57 25 bb d1 f6 3f bb 41 89 bd bc 2f 71 a3 bc
       -0.0025228995 -0.00292914 -0.023136737 -0.019951431
000040 d4 e4 ea bb 1a cd bb bc 18 4d 75 3d fc b5 eb 3c
       -0.0071683917 -0.022924948 0.059887975 0.0287733
000050 50 6b 54 bc d3 cd cc 3b c7 8e a5 3c 7c 54 36 3c
       -0.012965038 0.006250122 0.020209683 0.011128541
000060 e5 43 69 bc b5 35 c3 3c 6e 9f df 3b 9b 02 83 bc
       -0.014237379 0.02382932 0.0068244254 -0.015992453
000070 ea 9f c9 3c 8a 98 33 bd 18 4f 8c bb 35 cd e3 bc
       0.024612386 -0.043846644 -0.0042818896 -0.027807811
000080 f5 65 a2 bb 50 6a 26 bc a5 45 cc bb 6c b2 1e bc
       -0.004956002 -0.010157183 -0.006233888 -0.009686094
000090 44 41 e6 3b 88 a7 15 3d 51 78 47 3d dd 25 2e 3c
       0.0070268232 0.036536723 0.048698727 0.0106291445
0000a0 29 8b 02 3c ca 1d 67 3c 23 7e 2f bc 62 28 e3 3b
       0.007967749 0.014106223 -0.010711226 0.0069323042
0000b0 53 dd dd 3c 78 c8 ec 3c 09 e5 a2 bb 06 b6 13 bc
       0.027083075 0.028904185 -0.004971151 -0.009015566
0000c0 5e 9e df 3b ff ee 89 3b 0e aa 20 bc 18 6e 20 3c
       0.0068242988 0.0042093988 -0.009806169 0.009791873
0000d0 e6 6b 33 3c 81 1d 19 bb e1 6d a1 3b e3 f8 10 3c
       0.010951018 -0.0023363533 0.0049264287 0.008848402
0000e0 c1 f2 a2 bc 94 48 49 bc b2 bc b7 bb 63 29 6b 3c
       -0.019891145 -0.01228537 -0.005607211 0.014353129
0000f0 0d 49 8a bb dc 18 ce bc 2f 30 6a bc 2b c5 d4 3c
       -0.004220134 -0.025158338 -0.014293714 0.025972923
000100 22 30 a6 bc eb c0 ba 3c 69 ba 39 3b 07 2c c1 3b
       -0.020286623 0.022797069 0.002833987 0.005895141
000110 36 f8 80 3c 05 d7 d3 bb f8 e8 75 bc f5 99 6c ba
       0.015743356 -0.0064648413 -0.015009157 -0.0009025627
000120 db 17 1e bd a4 0e a9 3c 70 ad c2 bb 59 2a 44 3b
       -0.03859697 0.020636864 -0.0059410855 0.0029932468
000130 d5 af cf bb 22 a1 22 bd 6a d5 02 bc 38 3d fb 3c
       -0.0063380995 -0.03970445 -0.007985452 0.03066884
000140 bd 67 4d 3c eb 8a 00 80 cb 2b f3 16 2a 89 00 00
       0.01253694 -4.9834e-41 3.9286405e-25 4.9205e-41
000150 48 8b 00 80 dd 88 00 80 bb 89 00 00 59 89 00 00
       -4.9965e-41 -4.9097e-41 4.9408e-41 4.9271e-41
000160 ff 89 00 80 2d 9a 00 80 60 8a 00 80 a9 8c 00 80
       -4.9504e-41 -5.5308e-41 -4.964e-41 -5.046e-41
000170 43 8c 00 00 f0 88 00 00 12 8b 00 80 26 89 00 80
       5.0316e-41 4.9124e-41 -4.9889e-41 -4.92e-41
000180 e1 3e af 19 5d 89 00 00 55 89 00 00 b1 8c 00 80
       1.8119972e-23 4.9277e-41 4.9265e-41 -5.047e-41
000190 6c 8a 00 00 be 8c 00 80 77 8c 00 80 a2 8d 00 00
       4.9656e-41 -5.0489e-41 -5.0389e-41 5.0808e-41
0001a0 b0 8a 00 00 6b 8a 00 00 f0 a6 00 00 86 02 00 00
       4.9752e-41 4.9655e-41 5.9886e-41 9.05e-43
0001b0 17 8a 00 00 f0 8c 00 00 ba 89 00 00 09 93 00 80
       4.9537e-41 5.0559e-41 4.9407e-41 -5.2746e-41
0001c0 48 89 00 00 61 89 00 80 64 8b 00 00 21 0a e4 86
       4.9247e-41 -4.9282e-41 5.0004e-41 -8.577895e-35
0001d0 b6 89 00 00 58 8b 00 00 07 8a 00 00 fb 88 00 80
       4.9401e-41 4.9987e-41 4.9515e-41 -4.914e-41
0001e0 b7 89 00 00 d1 88 00 00 24 8b 00 00 e8 8b 00 80
       4.9403e-41 4.908e-41 4.9914e-41 -5.0189e-41
0001f0 20 8a 00 00 44 8d 00 00 52 8a 00 00 ff 88 00 80
       4.955e-41 5.0677e-41 4.962e-41 -4.9145e-41
000200 45 8a 00 00 35 8a 00 00 ff 88 00 00 38 8a 00 00
       4.9602e-41 4.958e-41 4.9145e-41 4.9584e-41
000210 37 8b 00 00 8b 89 00 80 d7 89 00 80 e4 88 12 bd
       4.9941e-41 -4.9341e-41 -4.9448e-41 -0.03577508
000220 b3 49 dc 3a 70 ee 62 bd ba 63 4d bc ac 4f c6 3c
       0.0016806632 -0.055403173 -0.012535984 0.024207912
000230 20 1d fa bc 67 02 b9 bc c7 a8 a0 3b 63 c3 48 bd
       -0.030531466 -0.022584153 0.0049029323 -0.04901446
000240 53 d2 2a 3c 22 3d f9 3c ff 42 b4 3c 10 35 d2 bc
       0.010426122 0.030424658 0.022004602 -0.025660068
000250 b3 88 d5 3c e9 9f 23 b9 8c f1 12 3d 88 ed ae 3b
       0.02606616 -0.00015604463 0.03587489 0.0053383745
000260 5c 87 7d bb 77 62 f0 bc 39 d0 fe ba 84 76 f8 bb
       -0.0038685417 -0.029343827 -0.0019440717 -0.0075824875
000270 ad a2 8c 3c 9a b4 a1 bc 52 9d fb 3c 23 93 f0 bb
       0.017167414 -0.019739438 0.030714665 -0.007341759
000280 87 fb c1 3b 3c 25 04 3d aa c2 18 bd 2f 27 d1 bb
       0.005919877 0.032262072 -0.03729502 -0.006382845
000290 fa 81 59 39 49 7a 92 bc da 37 94 bc d8 7a e8 bc
       0.00020743153 -0.017880576 -0.018093038 -0.028378889
0002a0 a1 5b 0c bd 4b 38 f5 bb 46 ec 58 bc 0b 02 cb bc
       -0.03426707 -0.0074835173 -0.013239926 -0.024781248
0002b0 51 04 f0 bc 4a 03 d2 bc f8 88 93 bb 96 cc b3 3c
       -0.029298933 -0.025636334 -0.004502412 0.02194814
0002c0 86 8c 75 3c 68 e4 aa 3b 11 f8 ae bb 83 47 16 3c
       0.014987117 0.0052152164 -0.0053396304 0.009172323
0002d0 33 81 82 bd 1f 7c 55 bd 46 56 a6 bc 9f fc f0 3b
       -0.06372299 -0.052120324 -0.02030481 0.0073543335
0002e0 74 bb 06 bc a0 90 60 bd cd f3 b7 bc ae c3 91 bc
       -0.008223403 -0.054825425 -0.02245512 -0.017793503
0002f0 7d f6 93 3c 48 b4 5c 3c 74 ee 96 3c 76 74 ad 3a
       0.01806187 0.013470717 0.01842425 0.0013233561
000300 a4 81 7c bc 95 a1 86 bb 19 17 52 bc bb e6 c3 bc
       -0.015411768 -0.0041086175 -0.01282289 -0.023913732
000310 86 b1 a2 bc 63 75 38 bd 20 a0 8d 3c 07 17 0d bc
       -0.01986004 -0.045033824 0.017288268 -0.008611447
000320 8f d3 fd 3b 6f eb 4f bb e0 5a 02 bd f0 5c bd bc
       0.007746167 -0.0031726023 -0.031824946 -0.023115605
000330 7c 10 4e bd 3a ad 73 bc 27 64 df bc 1a 24 b7 3c
       -0.05030869 -0.014872843 -0.027269436 0.022356082
000340 c5 eb 50 bc fb 9a 35 bd 80 f8 13 3c b1 7b 0f bc
       -0.012751524 -0.044337254 0.009031415 -0.008757518
000350 ab c0 25 bd 38 d4 86 bd 46 48 22 bd 04 82 27 bd
       -0.040466946 -0.06583446 -0.039619707 -0.040895477
000360 58 89 00 80 71 dd ed 8b 1f 78 9e 9c cf 89 00 80
       -4.927e-41 -9.162227e-32 -1.0486614e-21 -4.9436e-41
000370 4f 8a 00 00 40 89 00 00 7f 3d 00 00 67 bb 4c 10
       4.9616e-41 4.9236e-41 2.206e-41 4.0376276e-29
000380 6c 77 29 80 82 b6 f9 82 dd ca 0d 84 79 67 00 80
       -3.808096e-39 -3.6692016e-37 -1.666762e-36 -3.7119e-41
000390 31 85 a1 0f 70 af 4f 08 dc 38 00 80 2b c0 69 0f
       1.5927129e-29 6.2498022e-34 -2.0397e-41 1.1524797e-29
0003a0 03 90 a0 9f 0d 89 00 80 83 4d 96 0c 09 8f 03 80
       -6.800088e-20 -4.9165e-41 2.315781e-31 -3.26818e-40
0003b0 d3 67 01 84 58 da 89 84 a1 3e 00 80 91 89 00 80
       -1.521155e-36 -3.2409062e-36 -2.2467e-41 -4.935e-41
0003c0 51 8a 00 80 be cd 53 8a f3 89 00 00 15 1f bf bb
       -4.9619e-41 -1.0197976e-32 4.9487e-41 -0.0058325627
0003d0 19 c3 8e b9 d5 9e 51 bc ca 8a 01 bd 8b 39 9e 3a
       -0.0002722971 -0.012794216 -0.0316265 0.0012071593
0003e0 f8 26 38 3c b9 28 d4 bb dc a5 4b bc f3 bb 4c bd
       0.01123976 -0.006474581 -0.012429681 -0.04998393
0003f0 2a 3d 7f 3c b3 68 ea bb 67 2a d7 3c 08 6f 1d 3d
       0.0155785475 -0.0071535944 0.026265336 0.038435966

e_conv1.bias f4 [32]
000000 7d 86 67 3d 81 c9 5e 3d 5a 63 35 3e cd cb 1e ba
       0.056524742 0.054391388 0.17713681 -0.00060575904
000010 ba 85 95 b7 78 07 ff 3c 4d ba 38 3e 8d 81 0d 3d
       -1.7824455e-05 0.031131491 0.18039818 0.034547377
000020 f1 03 94 a3 60 2a 94 3d 08 30 95 3c f3 5d 18 bb
       -1.6047861e-17 0.07234645 0.01821138 -0.0023249357
000030 13 42 ba 3c 75 3e 62 3d 41 a7 24 3e 95 17 91 3d
       0.022736585 0.055235345 0.16079427 0.07084576
000040 cf 08 23 3e 6a 60 23 3c 46 71 82 3d 11 c8 0a b7
       0.15921329 0.009971717 0.063692614 -8.272023e-06
000050 3a 74 8c aa 09 8a 03 be df 33 c9 bc 79 23 b5 ba
       -2.4949644e-13 -0.12845625 -0.024560867 -0.0013819776
000060 10 6b 09 b6 ca cc bd 3d 8c 85 71 3d 98 b6 03 3e
       -2.047691e-06 0.09267576 0.05896525 0.12862623
000070 16 41 ed bd d4 e9 80 b5 85 73 f8 3c e4 88 90 bb
       -0.1158468 -9.604796e-07 0.030328522 -0.00441085

e_conv2.weight f4 [32, 32, 3, 3]
000000 fb f9 67 ba d2 4f 9f 3c c5 94 2c 3d c0 b0 d2 3b
       -0.00088492007 0.019447241 0.042134065 0.0064297616
000010 43 95 ad 3c 7a f9 59 3c 93 57 86 3c d5 d2 5f 3c
       0.021189338 0.013304109 0.01639918 0.013661106
000020 e1 78 12 3d 73 35 ab bc 31 35 87 bc 74 52 e0 3c
       0.03575981 -0.02089951 -0.016504856 0.027383067
000030 59 d2 a5 3b 6a 3e 45 bb 9b 4b 9f 3b b8 7e 67 3c
       0.005060476 -0.0030097016 0.004861308 0.014129333
000040 a6 f3 0a bc 55 2f 20 3c 97 4c 55 bb 0e 2c 3b 3b
       -0.008480942 0.00977691 -0.0032546872 0.0028560194
000050 fa dd dc 3c bd cb 6b 3d ff e4 37 bc 28 16 58 3c
       0.026961315 0.057567347 -0.0112240305 0.013188876
000060 3a 36 ef 3b 9e f1 45 bc b0 2b 01 bd 29 a9 00 00
       0.0073001655 -0.012081532 -0.031535804 6.0683e-41
000070 ed 9d 00 00 ea 88 00 80 6d 89 00 80 70 8b 00 00
       5.6653e-41 -4.9116e-41 -4.9299e-41 5.0021e-41
000080 92 93 00 80 35 16 9a 8e 89 89 00 80 ea 88 00 80
       -5.2938e-41 -3.7985316e-30 -4.9338e-41 -4.9116e-41
000090 47 8b 00 80 1a 89 00 00 4a 49 e1 0c 55 8a 00 00
       -4.9963e-41 4.9183e-41 3.4710848e-31 4.9624e-41
0000a0 43 89 00 80 24 8a 00 80 e1 9e 00 80 50 8c 00 00
       -4.924e-41 -4.9556e-41 -5.6995e-41 5.0335e-41
0000b0 c7 88 00 80 00 e4 b1 bb 79 03 eb 3b 52 84 aa 3c
       -4.9066e-41 -0.005428791 0.007172045 0.020815048
0000c0 b0 58 b0 bb 94 22 83 bc a0 6b bf 3c 8a 96 46 3c
       -0.005381666 -0.0160077 0.02336675 0.012120852
0000d0 04 d6 6d b9 c9 34 8c 3c d5 69 c2 3c 78 d3 35 3c
       -0.00022681808 0.017115014 0.023732105 0.011097781
0000e0 79 55 48 3d d6 73 a4 3b d2 b5 68 3c 35 c5 b0 3c
       0.048909638 0.0050186915 0.014203506 0.02157841
0000f0 63 f7 97 3c 01 53 b3 3c b0 c9 66 3c 0a a0 28 3c
       0.01855058 0.021890165 0.014086172 0.010292063
000100 30 ac 42 3c bd a6 75 3c 51 93 82 3c 39 e8 9f 3c
       0.011881873 0.014993367 0.015939387 0.019519912
000110 c8 4c b9 3c 04 89 a7 3c cc d4 cc 3c 86 9a e8 3c
       0.02261962 0.020451076 0.025003813 0.028393995
000120 51 8b 00 80 fb 8b 00 00 91 89 00 00 e0 a6 9a 95
       -4.9977e-41 5.0216e-41 4.935e-41 -6.246339e-26
000130 8d 8a 00 00 e6 8b 00 00 ba 8c 00 80 f4 89 00 80
       4.9703e-41 5.0186e-41 -5.0483e-41 -4.9488e-41
000140 cf 8a 00 80 bf 7d 78 bc 7c 4e 21 bb f9 a6 f8 3c
       -4.9795e-41 -0.015166699 -0.002461343 0.030353056
000150 31 96 81 bb c2 9c a8 bb 47 2e 85 bc 19 01 80 bb
       -0.003954672 -0.00514564 -0.016257418 -0.003906381
000160 e8 96 fc bb 8e 61 ef b9 9b 8f 09 bc 2a 66 d2 3b
       -0.007708419 -0.00045658316 -0.008396055 0.0064208703
000170 97 a7 09 3c 2a a4 47 3c 59 f6 41 3b d8 e9 9b 3b
       0.008401773 0.012185136 0.0029596298 0.004758101
000180 34 fa 5c 3c d2 73 d6 bc 74 a6 b6 bc fc 89 00 80
       0.013487387 -0.026178274 -0.022296168 -4.95e-41
000190 bf 88 00 80 38 a7 00 00 e9 7d 00 00 81 89 00 80
       -4.9055e-41 5.9987e-41 4.5168e-41 -4.9327e-41
0001a0 49 8f 00 80 1b 97 00 00 a5 8a 00 00 52 90 00 80
       -5.1401e-41 5.4206e-41 4.9736e-41 -5.1772e-41
0001b0 e2 a5 47 3c 5d 92 07 3d c5 4a dc 3c 11 eb 62 ba
       0.012185546 0.033098567 0.026891122 -0.00086562434
0001c0 2f fa 14 3b e2 3e 45 3c 75 0d 52 bc 4f 95 51 bc
       0.002273213 0.012038918 -0.012820591 -0.012791946
0001d0 8a 6c 6c 3b c7 06 ec 3b a9 4e 69 3c 3b 76 2e bb
       0.0036075437 0.0072029564 0.014239945 -0.0026620764
0001e0 e1 bc 99 3c 58 98 72 3c db 86 b9 3c 49 cc 2e 3d
       0.018766822 0.014806829 0.022647312 0.04267529
0001f0 8f a1 b3 3c bb ce 4a 3c 38 a7 03 3c 80 5d ed 3c
       0.021927623 0.01237839 0.0080354735 0.028975248
000200 ca 8e 93 3c 05 4c cf 3c d8 14 9c 3c a2 e3 8b bc
       0.018012423 0.025304804 0.019052908 -0.017076317
000210 c9 8a 34 3c 16 95 8a ba 07 a8 7d 3c b8 43 19 3d
       0.011019417 -0.0010572996 0.015481955 0.037418097
000220 01 3b fb 3c 85 1a 18 3d f9 27 37 3d 6a 3b 16 bc
       0.030667784 0.037134666 0.044715855 -0.009169439
000230 37 a2 22 3c c4 dc 8b 3c 17 aa b5 3b 76 84 52 3b
       0.00992637 0.017073043 0.005543958 0.003212241
000240 7f 24 03 bc 57 69 16 bc 0d ad 47 bd bb 5b 17 3c
       -0.008004307 -0.009180388 -0.04874902 0.009238179
000250 40 c1 1d 3d d0 ac d3 bc 41 cb 56 bc 9c 22 f4 ba
       0.038514376 -0.02583924 -0.013109983 -0.0018626037
000260 0f ad 95 bc 54 41 20 3c c7 8e f9 3b 8f 0f e6 3b
       -0.018270997 0.0097812 0.0076158973 0.0070208977
000270 8a 52 d3 3b df f4 a6 3b ef a4 53 3b 3f 0c 03 bc
       0.0064490484 0.005095109 0.0032294353 -0.007998525
000280 6d c0 14 bc 01 d0 31 bc ae 91 cc 3c 4d e1 d8 3c
       -0.009079081 -0.010852815 0.02497181 0.02647462
000290 69 dd 76 3c 83 d9 60 3c 79 dc c9 3c 68 08 3d 3c
       0.015067437 0.013723734 0.024641262 0.011537649
0002a0 5a 2c 1e 3d f3 0d 01 3d 6a d1 c9 3c 29 98 00 80
       0.038616516 0.031507444 0.02463599 -5.4585e-41
0002b0 fe 8a 00 80 24 a5 00 80 f3 89 00 80 b9 89 00 80
       -4.9861e-41 -5.9241e-41 -4.9487e-41 -4.9406e-41
0002c0 f9 f2 01 00 ef a7 00 80 ee 8a 00 00 80 8a 00 00
       1.78998e-40 -6.0243e-41 4.9839e-41 4.9684e-41
0002d0 2c 8b 00 80 29 94 00 80 17 89 00 00 f7 89 00 80
       -4.9925e-41 -5.315e-41 4.9179e-41 -4.9492e-41
0002e0 dd a3 00 00 c5 91 00 00 d7 da 66 8e 98 89 00 80
       5.8783e-41 5.2292e-41 -2.8455056e-30 -4.936e-41
0002f0 b2 89 00 80 ef 8d 9b 3c 45 86 ea 3c 43 59 b2 3c
       -4.9396e-41 0.018988578 0.028628478 0.021771079
000300 08 cf 51 3c 1d fc af 3c 9f a1 9c 3c a0 16 c1 3c
       0.012805708 0.021482522 0.019120036 0.023570359
000310 bb 58 01 3d b5 49 c8 3c ba 5d 17 3d 98 93 d2 3c
       0.03157876 0.024449209 0.03695462 0.025705144
000320 50 0f 43 3c f5 c2 9e 3c 7d f8 05 3c ae 00 1a 3a
       0.011905506 0.019380072 0.00817692 0.0005874735
000330 18 6b 84 3c 03 12 0b 3c 3a 40 6a 3a 89 98 00 00
       0.016164348 0.008488181 0.0008935962 5.472e-41
000340 b0 9b 00 80 bf 8b 00 00 70 89 00 00 d6 a6 00 00
       -5.585e-41 5.0131e-41 4.9303e-41 5.985e-41
000350 2f a4 00 00 f0 88 00 00 fc 88 00 00 06 8a 00 80
       5.8898e-41 4.9124e-41 4.9141e-41 -4.9513e-41
000360 d5 88 00 80 05 89 00 80 dd 88 00 00 42 89 00 80
       -4.9086e-41 -4.9153e-41 4.9097e-41 -4.9239e-41
000370 b1 ae 00 80 79 8a 00 00 62 89 00 80 a4 8a 00 80
       -6.2667e-41 4.9675e-41 -4.9284e-41 -4.9735e-41
000380 20 8a 00 80 f8 8e f1 3c 1f 2f 72 3c 13 36 5f bc
       -4.955e-41 0.029487118 0.014781742 -0.013623732
000390 df 85 01 3d 5d 0e fe bc 7d d4 ef 3c 2b d0 15 3d
       0.03162181 -0.031012708 0.029276127 0.036575478
0003a0 30 93 94 3c 38 cc f9 3c 74 52 7e bb 79 6e 9d 3c
       0.01813659 0.030492887 -0.003880647 0.019217717
0003b0 23 7d 27 3d 63 a7 14 bd 8c 76 26 3c 66 e3 03 3d
       0.040890824 -0.036292445 0.0101601 0.032199286
0003c0 7b f2 02 3c a8 ec 31 3d 6d e4 8c 3d 8b f8 7a bc
       0.007992382 0.043438584 0.06879506 -0.015318046
0003d0 8b c4 b9 bb 0e 00 44 ba 70 77 be 3c fd 7e 60 bc
       -0.0056691817 -0.0007476815 0.023250312 -0.013702151
0003e0 b3 5e bf 3c 8c c8 aa 3c 09 46 be 3c fe 8e d3 3b
       0.023360586 0.020847581 0.023226755 0.006456255
0003f0 8a b8 09 3d be b1 6f 3c 9b e1 85 3c a2 60 87 3c
       0.033623256 0.014629779 0.016342929 0.01652557

e_conv2.bias f4 [32]
000000 89 d8 9f 3c 36 7f 9c b6 b0 47 5f 3d b2 ca 1e a2
       0.019512432 -4.6639716e-06 0.054511726 -2.1520299e-18
000010 5b 4a e3 3c 55 46 03 3d c2 32 52 3c 5d 55 8c b3
       0.027745416 0.032049496 0.012829484 -6.5347855e-08
000020 aa d1 c2 3c c6 0d ba b2 b3 f2 3a 3b a6 2a 5e 3d
       0.023781616 -2.1659513e-08 0.0028526008 0.05423989
000030 aa 10 5e bc d8 3e a1 3b 70 59 91 bb 07 ee 14 3c
       -0.013553778 0.0049208216 -0.0044357106 0.009089953
000040 23 93 ab 3c f1 12 1b bd b4 e1 11 9e f0 dc f6 a9
       0.020944184 -0.03785986 -7.72291e-21 -1.0962921e-13
000050 71 c4 da bb 68 58 b0 b9 d8 b3 56 3d f7 3d 91 3c
       -0.0066762497 -0.00033635204 0.052417606 0.017729742
000060 b7 7c dc ac 7c ca d4 bc 6d fc a8 3b ab 14 e7 bb
       -6.266622e-12 -0.025975458 0.0051570446 -0.0070520244
000070 a3 74 1a 3d 96 4c 74 b7 c4 3a ed 3c e9 a0 d8 3c
       0.03770889 -1.4561365e-05 0.028958686 0.026443915

e_conv3.weight f4 [32, 32, 3, 3]
000000 d6 84 e4 26 44 a4 2b 27 bc fe d6 26 87 1f 06 27
       1.5856683e-15 2.3820066e-15 1.4918279e-15 1.8613327e-15
000010 d1 45 65 26 59 b5 48 26 14 4a a8 27 54 de 6d 27
       7.9544954e-16 6.963471e-16 4.6709683e-15 3.3010881e-15
000020 72 5e ff 26 8e 89 00 00 b4 8c 00 00 79 8a 00 00
       1.7719779e-15 4.9345e-41 5.0475e-41 4.9675e-41
000030 39 8f 00 80 2b 89 00 80 46 89 00 00 b0 89 00 00
       -5.1379e-41 -4.9207e-41 4.9244e-41 4.9393e-41
000040 7c 91 00 00 47 93 00 80 4d 6c 87 27 0e a2 cd 25
       5.219e-41 -5.2833e-41 3.7587447e-15 3.5671644e-16
000050 62 79 34 27 df e4 af 25 e1 1b 0a 27 b2 0b 37 26
       2.504582e-15 3.051275e-16 1.916646e-15 6.350673e-16
000060 7f f5 55 27 68 15 8b 25 2e ec 28 26 5d 89 00 00
       2.9692772e-15 2.4127162e-16 5.860679e-16 4.9277e-41
000070 b9 a4 00 80 e5 8a 00 80 b8 4b 00 00 c9 8b 00 00
       -5.9091e-41 -4.9826e-41 2.7163e-41 5.0145e-41
000080 8a 8a 00 80 e5 88 00 00 bd 88 00 80 f8 88 00 00
       -4.9698e-41 4.9109e-41 -4.9052e-41 4.9135e-41
000090 7d 9a 9e 27 b1 90 33 27 0c c9 5d 26 3b 6a b9 27
       4.4021306e-15 2.4919678e-15 7.6947247e-16 5.146299e-15
0000a0 0d 80 72 26 c7 85 75 27 09 50 65 27 26 13 0b 26
       8.413416e-16 3.40731e-15 3.1823521e-15 4.8251264e-16
0000b0 18 38 ef 27 6b 83 ea 26 1b 12 1b 28 b3 28 a0 27
       6.6396643e-15 1.6272633e-15 8.6081544e-15 4.4453047e-15
0000c0 d7 93 45 27 2f d4 d4 25 45 c5 8e 26 c3 8b d6 26
       2.7419386e-15 3.691992e-16 9.906699e-16 1.4887115e-15
0000d0 2f 26 5a 27 99 c9 89 27 27 63 de 27 7f 40 9e 27
       3.0274277e-15 3.824371e-15 6.172488e-15 4.3923736e-15
0000e0 32 c7 4c 26 d7 0c 24 27 bb 1c d0 25 fc a1 15 28
       7.104668e-16 2.2766532e-15 3.6101717e-16 8.306286e-15
0000f0 dc a4 26 27 95 fa 45 27 65 c3 6f 27 71 a8 00 80
       2.3126498e-15 2.7475083e-15 3.3273836e-15 -6.0425e-41
000100 f4 a0 00 80 eb 5f b8 06 ac 8b 00 00 01 8b 00 80
       -5.7739e-41 6.9354046e-35 5.0105e-41 -4.9865e-41
000110 5a 8d 00 80 33 a0 00 00 81 89 00 00 bd 8a 00 00
       -5.0707e-41 5.7469e-41 4.9327e-41 4.977e-41
000120 1f 35 6b 25 72 3f b1 27 57 86 ae 27 06 60 91 25
       2.0400999e-16 4.9196156e-15 4.8440353e-15 2.5218558e-16
000130 2d 6a e3 26 36 87 93 27 c8 93 1d 26 00 b5 09 27
       1.5780068e-15 4.0947292e-15 5.46706e-16 1.911069e-15
000140 ae 7b 58 26 06 d0 0a 80 85 d2 27 8a 52 da 81 8a
       7.510767e-16 -9.9298e-40 -8.080352e-33 -1.2504371e-32
000150 96 07 00 00 7d f6 b7 08 c9 21 bc 1e 59 73 05 00
       2.721e-42 1.1071861e-33 1.9919247e-20 5.00556e-40
000160 1d fa ee 08 6d 17 6a 05 6d a4 f0 27 b8 3e 7a 27
       1.4382905e-33 1.100693e-35 6.6791652e-15 3.472847e-15
000170 f0 ab cf 26 c6 dd 01 28 ef 3e 37 27 d0 9a 9d 27
       1.4410114e-15 7.209028e-15 2.5430468e-15 4.37441e-15
000180 3b b1 87 27 38 6b 37 26 4b b7 1b 28 e0 95 52 26
       3.766218e-15 6.363619e-16 8.643974e-15 7.3061504e-16
000190 eb 33 9f 26 6b 25 84 26 01 09 63 26 db 7c fb 26
       1.1046914e-15 9.169482e-16 7.876865e-16 1.7450466e-15
0001a0 63 ca 3c 28 41 d4 7e 28 44 5d 00 27 c4 73 ec 27
       1.0479982e-14 1.4145858e-14 1.7814128e-15 6.562867e-15
0001b0 a6 6b 60 27 1e f3 85 25 c4 6b 09 25 67 f0 81 26
       3.11446e-15 2.3236565e-16 1.1919368e-16 9.016334e-16
0001c0 88 6e 1d 26 46 3c 5c 25 5e 73 9c 26 bd a1 c4 25
       5.4620115e-16 1.910238e-16 1.0855945e-15 3.4110178e-16
0001d0 44 0e ff 25 b4 9a 21 27 8b 41 12 27 ee f4 1c 27
       4.4245115e-16 2.2427103e-15 2.0297101e-15 2.1782126e-15
0001e0 89 0e b1 26 ba 05 12 27 9a 2e 11 28 5f 4f c8 26
       1.2285782e-15 2.0264675e-15 8.059222e-15 1.3899301e-15
0001f0 a1 f6 0e 28 2a 45 26 27 46 4d f7 25 d1 ae 25 26
       7.936063e-15 2.3074622e-15 4.2900032e-16 5.7482795e-16
000200 78 3e 41 26 c3 ba 40 26 40 c1 07 27 60 37 c3 26
       6.7044987e-16 6.686649e-16 1.8839775e-15 1.3545853e-15
000210 77 e5 a8 26 97 e5 2a 25 5d 5e a4 27 fc 53 19 28
       1.1719538e-15 1.4822938e-16 4.5621453e-15 8.511417e-15
000220 65 34 86 25 01 b0 bd 26 1c ea 15 28 22 7e c6 26
       2.3280798e-16 1.3162215e-15 8.321926e-15 1.3773198e-15
000230 0a b6 5a 25 ce af 0c 26 bb bf f6 25 8c ea 9a 27
       1.8970163e-16 4.8810517e-16 4.280412e-16 4.2997883e-15
000240 f7 66 88 26 2f 19 3a 25 7a 40 ea 27 28 0d 22 27
       9.464804e-16 1.6141461e-16 6.5017953e-15 2.2489148e-15
000250 18 f4 1e 26 79 ed 26 27 98 e6 f6 26 17 fe dc 26
       5.514807e-16 2.3165862e-15 1.7132182e-15 1.5334438e-15
000260 58 4f 59 27 eb d0 05 27 49 30 e7 27 ea ef bd 26
       3.0157812e-15 1.8570712e-15 6.416773e-15 1.3179538e-15
000270 fe 38 a3 26 60 ff e7 26 08 59 96 26 46 5e 1d 27
       1.1325845e-15 1.6098064e-15 1.0432473e-15 2.1839233e-15
000280 66 31 0b 28 a5 5f 5e 27 0c e6 54 0d 06 89 00 80
       7.726762e-15 3.0860538e-15 6.5604453e-31 -4.9155e-41
000290 61 f8 c2 9e 44 89 00 80 53 8a 00 80 08 89 00 80
       -2.0643276e-20 -4.9242e-41 -4.9621e-41 -4.9158e-41
0002a0 bf 88 00 80 4d 8a 00 80 73 8a 00 80 04 9e 00 00
       -4.9055e-41 -4.9613e-41 -4.9666e-41 5.6685e-41
0002b0 d5 8f 00 00 bd 89 00 80 de 8b 00 00 72 8c 00 00
       5.1597e-41 -4.9411e-41 5.0175e-41 5.0382e-41
0002c0 2d 89 00 00 ba 9c 00 80 85 8f 00 00 fb a2 00 80
       4.921e-41 -5.6223e-41 5.1485e-41 -5.8466e-41
0002d0 0a 7a 34 27 89 32 9a 28 dc d6 84 27 43 dd 62 27
       2.5046176e-15 1.711935e-14 3.687031e-15 3.1483747e-15
0002e0 a0 90 9e 27 df f9 a6 28 1b bd 6b 28 c4 0f dc 26
       4.4010612e-15 1.8538067e-14 1.3086126e-14 1.526984e-15
0002f0 22 bf 34 28 6e 89 00 00 15 8a 00 80 9b 8a 00 00
       1.00334525e-14 4.93e-41 -4.9534e-41 4.9722e-41
000300 74 8a 00 80 fe 8c 00 80 43 89 00 00 21 8a 00 80
       -4.9668e-41 -5.0578e-41 4.924e-41 -4.9551e-41
000310 14 8d 01 80 bb 88 00 00 02 80 db 27 4f be a3 27
       -1.42445e-40 4.905e-41 6.0923497e-15 4.544792e-15
000320 06 0d d4 27 32 a2 12 27 94 d0 48 28 9d a2 44 27
       5.885594e-15 2.0349496e-15 1.1147458e-14 2.7288617e-15
000330 79 fb 77 27 d1 3a 56 28 63 10 7e 27 2b be f6 27
       3.441446e-15 1.189214e-14 3.5258464e-15 6.8484897e-15
000340 fb 8e ce 26 a5 20 f2 26 d8 59 6c 28 fa 17 cd 26
       1.4332876e-15 1.6800972e-15 1.31201134e-14 1.4231231e-15
000350 ca 11 dd 26 c3 9d 3a 27 86 a8 97 26 25 4f 45 26
       1.5339777e-15 2.5898208e-15 1.0523408e-15 6.8455366e-16
000360 53 8a 00 80 29 8b 00 80 79 91 00 00 fb 89 00 00
       -4.9621e-41 -4.9921e-41 5.2186e-41 4.9498e-41
000370 c4 89 00 00 a5 91 00 80 bd a1 00 80 e3 8a 00 80
       4.9421e-41 -5.2247e-41 -5.8021e-41 -4.9823e-41
000380 70 89 00 80 08 69 53 28 3a f7 b2 26 58 bf 45 28
       -4.9303e-41 1.1735628e-14 1.2418242e-15 1.0977188e-14
000390 94 62 88 26 90 08 fe 26 5f f9 3a 26 8f f6 69 28
       9.463615e-16 1.7627111e-15 6.4869674e-16 1.2987562e-14
0003a0 4d 5b 01 28 ba bd 50 26 f0 ea f8 25 f9 3f 85 26
       7.180736e-15 7.2421624e-16 4.3180342e-16 9.246069e-16
0003b0 bd 1b 96 26 78 db 2f 27 16 7e f8 26 4f 34 90 26
       1.0415859e-15 2.4405103e-15 1.7242633e-15 1.0006185e-15
0003c0 69 d0 15 26 a1 49 6d 27 b0 72 9d 25 39 31 03 27
       5.197721e-16 3.2930271e-15 2.7312874e-16 1.8206586e-15
0003d0 50 f7 5c 26 5a 8b f4 25 41 89 4e 26 6c 79 c3 26
       7.6663004e-16 4.242168e-16 7.165662e-16 1.3563755e-15
0003e0 20 f9 9c 26 05 4c ef 27 99 b6 f1 25 01 22 41 27
       1.08922e-15 6.6418246e-15 4.193057e-16 2.6802564e-15
0003f0 4b 69 9e 27 40 f3 df 25 68 15 d8 26 b8 29 76 28
       4.396797e-15 3.8849166e-16 1.4993813e-15 1.36647895e-14

e_conv3.bias f4 [32]
000000 09 37 e6 27 d7 eb be bb 0f 25 94 3b 33 f0 b5 bc
       6.3897493e-15 -0.005826454 0.0045210193 -0.022209262
000010 e6 7f a1 ba 1d 93 31 3d 88 dc a7 3c 70 24 06 b5
       -0.0012321442 0.04335319 0.0204909 -4.9971914e-07
000020 18 50 80 3c 1b 26 05 ac fe 2f 48 b7 ed 24 7c b4
       0.015663192 -1.892159e-12 -1.1932103e-05 -2.3482762e-07
000030 d9 df 98 3a f3 f0 03 a2 58 e7 57 3d 3e 88 8a a3
       0.0011663391 -1.7881368e-18 0.05271086 -1.501969e-17
000040 f7 db 9a b6 fc b2 af ae 54 27 3e 3d f3 b5 c0 3c
       -4.615165e-06 -7.9898727e-11 0.046424225 0.02352426
000050 65 50 05 b5 c2 3b 57 3c da bf 43 3d 70 c5 e8 3c
       -4.966335e-07 0.013136806 0.047790386 0.028414458
000060 3b 77 e6 3a 41 9d ad 3c aa 94 3f 3d 14 28 06 bc
       0.0017583141 0.021193149 0.046772636 -0.008188266
000070 33 9f 02 3c d8 06 c6 ba 73 08 58 b4 7b 6b 02 3d
       0.007972526 -0.0015108241 -2.0119641e-07 0.031840783

e_conv4.weight f4 [32, 32, 3, 3]
000000 cf 28 45 a5 f1 ce 88 a5 14 2a 3c a4 85 a7 84 a5
       -1.7100853e-16 -2.3732468e-16 -4.0801643e-17 -2.3011866e-16
000010 9a b1 12 a4 9a 0a 73 a3 39 5c 01 a4 c6 79 90 a3
       -3.1809138e-17 -1.3175301e-17 -2.8050532e-17 -1.5664084e-17
000020 1a 7b 71 a5 71 03 01 3c d0 4a de 3b 86 03 ca 3c
       -2.0945126e-16 0.007874356 0.0067838207 0.024659883
000030 9f a3 6b 3c 8a f5 8d 3b 59 22 ac 3c 46 c9 07 3d
       0.014382272 0.004332249 0.021012472 0.033150934
000040 ed f0 ab 3c a4 d5 2c 3d 8b 8a 8b 3d 06 f0 b4 3c
       0.020988906 0.04219593 0.06813534 0.022087108
000050 48 91 7b bc d7 91 25 3d 70 63 81 bb b8 63 11 bd
       -0.015354462 0.040422287 -0.0039486215 -0.03549549
000060 3f ca 8a 3b 34 a0 14 bd f3 91 81 bd cf 1c 92 3c
       0.0042355354 -0.036285594 -0.06326666 0.017836003
000070 44 3e b5 39 b7 59 0e 3d d8 12 d1 3b 7c b0 b7 3b
       0.00034569402 0.034753527 0.00638042 0.0056057554
000080 50 e3 c2 3c 2a a3 dc 3c 04 ca ae 3c 55 51 52 3d
       0.023790032 0.026933271 0.021336563 0.051347096
000090 c2 5c 67 3b 20 01 eb 3c 6a 6b f9 3c 07 10 65 3b
       0.003530309 0.02868706 0.030446727 0.003495218
0000a0 1d b9 ae 3c d1 ab a5 3c d6 87 9d 3c d9 f8 14 3c
       0.021328503 0.02022353 0.01922981 0.009092533
0000b0 9c 98 ec 3c 1d 4e 90 3c 5b 26 bd 3b 24 9d e9 3c
       0.028881364 0.017615372 0.0057723946 0.028517313
0000c0 01 e0 1a bb e9 d4 8a 3c 62 9e 94 3c e2 4c 10 3d
       -0.0023632052 0.016947227 0.018141929 0.03522957
0000d0 f7 d0 a8 3c 36 27 25 3d 0e 59 13 3d 8b 0b cc 3b
       0.020607455 0.040320598 0.0359736 0.006226962
0000e0 ec f4 23 3d 71 41 8f 3b c1 dd da ba 9b ea 8f 3c
       0.040028498 0.004371815 -0.0016698168 0.017567923
0000f0 1b 15 67 3c 8c 86 ec 3c 52 ee 05 3d f7 88 00 00
       0.014104153 0.02887275 0.032697983 4.9134e-41
000100 b6 c6 43 81 8a 97 00 80 48 89 00 00 5e 8a 00 00
       -3.5958412e-38 -5.4362e-41 4.9247e-41 4.9637e-41
000110 02 8a 00 80 79 89 00 80 67 8a 00 80 33 8a 00 80
       -4.9508e-41 -4.9316e-41 -4.965e-41 -4.9577e-41
000120 5e 49 bd 3c 5c f3 ea 3c a3 0c 2f 3d 24 80 8c 3c
       0.023106273 0.028680496 0.04273666 0.017150946
000130 5b 10 31 3c da dd 1a 3c 34 a9 6e 3c a9 30 19 3d
       0.010807122 0.009452308 0.014566708 0.03739992
000140 8c c9 f9 3c 59 2a 4f 14 6b d5 e1 95 53 6f be 94
       0.030491613 1.0459181e-26 -9.121349e-26 -1.9229007e-26
000150 3a 13 69 95 47 cd cc 95 bf 88 38 17 95 66 46 16
       -4.7069142e-26 -8.2718814e-26 5.9626204e-25 1.6026682e-25
000160 15 6f e7 16 82 13 e5 16 8f 8a 00 80 74 89 00 80
       3.7390165e-25 3.7009257e-25 -4.9705e-41 -4.9309e-41
000170 c9 a8 00 00 09 8c 00 00 8e 89 00 00 ef 8b 00 00
       6.0549e-41 5.0235e-41 4.9345e-41 5.0199e-41
000180 27 8c 00 00 07 8a 00 80 87 9d 00 00 09 5f 30 32
       5.0277e-41 -4.9515e-41 5.651e-41 1.0266157e-08
000190 1f a0 16 33 35 0b af 2f d1 86 87 b2 fc 83 24 b2
       3.5070226e-08 3.1840278e-10 -1.5777376e-08 -9.576066e-09
0001a0 3c fb 7a b2 46 db bd 30 ee 7d 94 b0 c7 0f d7 32
       -1.4609039e-08 1.3813881e-09 -1.0804209e-09 2.5036469e-08
0001b0 4d f9 de 3c 7b 80 96 3c 54 cb 92 3c 1c 59 38 3c
       0.027218485 0.018371811 0.01791922 0.011251714
0001c0 a1 37 ab 3b df 0a a6 3c 2e 14 08 3d 5d 8a 12 3d
       0.0052251373 0.020268856 0.03322237 0.035776485
0001d0 99 33 9d 3c 67 8a 00 80 ff 88 00 00 f4 89 00 80
       0.019189643 -4.965e-41 4.9145e-41 -4.9488e-41
0001e0 e5 8a 00 80 5e 8a 00 80 ba 89 00 80 97 8b 00 80
       -4.9826e-41 -4.9637e-41 -4.9407e-41 -5.0075e-41
0001f0 3f 8a 00 80 09 8a 00 00 52 f7 35 3c 71 ae 07 3d
       -4.9593e-41 4.9518e-41 0.011106329 0.033125345
000200 ab 1a 35 3d 9b 79 53 3c b7 48 2f ba d1 eb 91 3c
       0.044214886 0.012907411 -0.00066865556 0.017812641
000210 85 3a 2e 3c d9 76 9e 3b 4c b9 69 3d 65 12 19 1f
       0.010634069 0.004835945 0.05706148 3.2414226e-20
000220 f5 a7 61 1d 7f 69 ff 95 a7 c6 e2 9e 65 7c 3d 9f
       2.9865334e-21 -1.03160123e-25 -2.4010841e-20 -4.0125204e-20
000230 66 95 0c 1d 74 c6 85 1f 9a 71 ea 9f 4c bb f6 1f
       1.8606083e-21 5.6656004e-20 -9.929079e-20 1.0449491e-19
000240 0d 89 00 80 ed 88 00 00 e8 88 00 80 99 89 00 80
       -4.9165e-41 4.912e-41 -4.9113e-41 -4.9361e-41
000250 4d 8a 00 80 7e 89 00 00 81 8b 00 80 0d 8c 00 80
       -4.9613e-41 4.9323e-41 -5.0045e-41 -5.0241e-41
000260 61 89 00 80 d8 89 00 80 5a 89 00 00 35 9b 00 00
       -4.9282e-41 -4.9449e-41 4.9272e-41 5.5678e-41
000270 6e 89 00 80 6a 8a 00 80 dd 89 00 00 24 8a 00 80
       -4.93e-41 -4.9654e-41 4.9456e-41 -4.9556e-41
000280 17 8a 00 00 8b 92 00 00 76 35 be 3c 17 2f c1 3b
       4.9537e-41 5.257e-41 0.023218852 0.005895506
000290 44 ee 4d 3c 50 eb 11 3c eb 2d 80 bc 3e 10 87 bb
       0.012569014 0.0089062005 -0.015646895 -0.0041218093
0002a0 3c a5 8f 3c d6 4e 75 3c b7 33 4c 3b e1 38 83 3c
       0.017534845 0.014972409 0.0031158754 0.016018333
0002b0 90 de 66 3c 97 fe 3a 3d 18 29 a5 3c 03 a9 83 bc
       0.014091149 0.045652952 0.020161197 -0.016071802
0002c0 c4 bf c5 3c a5 42 df 3c 8f df 00 3d 97 f4 26 3d
       0.024139293 0.027253458 0.031463202 0.040760603
0002d0 ae 89 00 80 31 89 00 00 a8 89 00 00 73 89 00 00
       -4.939e-41 4.9215e-41 4.9382e-41 4.9307e-41
0002e0 6a 8a 00 80 e2 89 00 00 ba 88 00 00 04 8c 00 00
       -4.9654e-41 4.9463e-41 4.9048e-41 5.0228e-41
0002f0 e6 89 00 00 75 83 a9 3c dc ab ea 3c bc b2 1d 3d
       4.9469e-41 0.020692566 0.028646402 0.038500533
000300 43 3c 45 3c 32 ad 0a 3c 79 26 b2 3c 90 88 a9 3b
       0.012038293 0.008464145 0.02174686 0.00517375
000310 49 af be 3c 5c ae a9 3c b6 bb bd 3c e0 1c 5e 3c
       0.023276942 0.020713024 0.023160797 0.013556689
000320 76 00 a5 3c 68 6f 01 3b 3b 59 89 3c ca 81 aa 3c
       0.020141821 0.0019750241 0.016766181 0.020813841
000330 95 37 8a 3c ca da e4 3c c7 9c fb 3c 77 c8 5c bd
       0.016872207 0.027936358 0.030714406 -0.053902116
000340 a4 d1 86 bc 24 d3 4d bc 0a 14 24 bd 3b 86 88 bc
       -0.016457386 -0.012562547 -0.040058173 -0.016665569
000350 ab 91 9c bb a8 96 ac bc b8 84 82 bc f2 1e 70 bb
       -0.004778107 -0.021067932 -0.015932426 -0.0036639539
000360 d3 26 e6 3c 20 be b8 3c 03 ff c9 3a 09 fd be 3c
       0.028094685 0.022551596 0.0015411082 0.023314016
000370 31 54 02 3d 77 bb 3b 3c b2 0f 5a 3d 45 5c 40 3d
       0.031818572 0.011458269 0.053237624 0.046962995
000380 30 4a b4 3c fa 96 d5 bc 2c 86 f5 3c a1 43 9d 3d
       0.022008032 -0.026072968 0.029971205 0.07678915
000390 9c a3 02 bd cd 08 9c 3c 6c e8 3a 3d ad 1e cc bc
       -0.03189431 0.019047165 0.04563181 -0.024916971
0003a0 9c a6 62 3c f3 c3 32 3d aa 97 57 3c 3e 44 01 3c
       0.013833668 0.043643903 0.013158718 0.007889805
0003b0 2c 01 9c 3c d5 f9 92 3c 31 91 87 bc 17 7d fe 3c
       0.019043528 0.017941395 -0.016548725 0.031065507
0003c0 8a 9c 10 3d d1 e7 c5 ba 42 5e 12 3c 7c 46 27 3d
       0.035305537 -0.0015098994 0.008933606 0.040838704
0003d0 1d 26 1a 3d b8 e0 24 3d 3c 32 7f 3c ba 24 3c 3c
       0.037634004 0.04025337 0.015575942 0.011483366
0003e0 cf e0 70 3c 9b a6 87 3b da f5 39 3b 19 b6 41 3c
       0.014702036 0.004139734 0.0028375299 0.011823201
0003f0 fc c2 33 3c 7c 08 24 3c 9a d8 9e 3c 22 a4 81 3c
       0.010971781 0.010011788 0.019390393 0.015825335

e_conv4.bias f4 [32]
000000 41 93 55 3c 0e 5e 4a 9e 12 d3 1d 3d ca 4e 0d 3d
       0.013035596 -1.0713241e-20 0.03853137 0.034498967
000010 b8 6d 8d bc 37 5a c2 b6 e2 13 01 bc b2 c8 2d 3d
       -0.017264232 -5.792153e-06 -0.007878276 0.042427726
000020 bc f0 07 3d 7a ea 47 3d c1 51 e1 3c 21 5e 12 bd
       0.033188567 0.0488076 0.027504804 -0.0357343
000030 ba 45 07 ba 91 aa ee 96 d9 e4 26 3d a5 ee 5f 14
       -0.00051602314 -3.8558616e-25 0.04074559 1.1305687e-26
000040 44 69 a6 b8 64 f9 62 bc 45 4c fc b2 7c ca af 3c
       -7.935104e-05 -0.013853405 -2.9371344e-08 0.021458857
000050 72 83 27 b4 3f a5 3b 3d 15 61 92 3c 50 fc bc 3c
       -1.5600907e-07 0.045811888 0.017868558 0.02306953
000060 41 16 dc 3c be fa c6 a1 ea 59 5e 3c 61 e5 c1 3c
       0.02686608 -1.3483373e-18 0.013571242 0.023668947
000070 ce 0a ec 9e a3 e1 78 bb 56 35 00 bd 36 15 8c b7
       -2.499194e-20 -0.0037976287 -0.031300865 -1.6699178e-05

e_conv5.weight f4 [32, 64, 3, 3]
000000 50 c5 09 25 0c a3 da 23 b0 a2 9a 25 6e 8e 57 24
       1.1949708e-16 2.370466e-17 2.6824983e-16 4.6741336e-17
000010 e9 df e7 23 73 be 02 26 3c 5d 0f 25 06 1d 61 25
       2.51399e-17 4.5360917e-16 1.2434862e-16 1.9525473e-16
000020 a8 64 b5 25 d2 32 d6 ba 0c db a1 ba f3 ec ba 3a
       3.1466702e-16 -0.001634205 -0.0012348606 0.001426129
000030 ae 49 9d bb db 82 56 bb 71 1e 9c 3a 46 50 39 bc
       -0.004800043 -0.0032731805 0.0011910928 -0.011310643
000040 8d e5 0a bc 94 c0 65 bb f9 70 0e 3c 4b 0f 53 3c
       -0.008477581 -0.0035057412 0.008693927 0.012882064
000050 96 d2 7e 3c 9e cf 44 3c ad 82 74 3c e1 b7 87 3c
       0.015553137 0.01201239 0.014923734 0.016567172
000060 02 7f 14 3c 72 91 49 3c 4b ca 75 3c 2d 71 a1 ba
       0.009063484 0.012302743 0.015001844 -0.0012317054
000070 fd c9 ba ba 03 23 02 3b 9f 4b 2d bb fc e8 1e bb
       -0.0014250871 0.0019857294 -0.0026442779 -0.0024247756
000080 dc 87 34 3b c7 e7 33 bc ea cb 18 bc 2a ca 35 bb
       0.0027546799 -0.010980553 -0.009325961 -0.0027738907
000090 34 0d 36 bb 3a 75 09 bb 06 35 b2 b8 cf df 99 bb
       -0.0027778866 -0.0020974413 -8.497578e-05 -0.0046958695
0000a0 b2 2a 33 bb ac 08 14 3a ce 04 09 bc 21 f8 d2 bb
       -0.002733868 0.0005647044 -0.008362962 -0.0064382707
0000b0 13 ee 14 bb be 82 77 bb ea 02 42 bb ab 7c 24 bb
       -0.002272491 -0.0037767137 -0.0029603788 -0.0025098722
0000c0 46 d8 1e bb c2 71 e0 ba c9 49 d1 39 b4 86 11 bc
       -0.0024237796 -0.0017123746 0.0003991856 -0.008882213
0000d0 40 5b c9 bb 14 a1 60 bb f7 ad 0f bb 8c 71 6a ba
       -0.006144911 -0.0034275698 -0.002192376 -0.00089433114
0000e0 76 eb 2a 3a 96 db 27 39 88 7b 86 3a 29 5d 86 3b
       0.0006520072 0.00016008163 0.0010260204 0.004100461
0000f0 5c 55 ea bb 7f 6b 94 bb 65 55 09 ba d9 8e 00 80
       -0.007151289 -0.004529416 -0.000523886 -5.1244e-41
000100 af 8b 00 80 3b 8b 00 00 1f 89 00 00 8b 8c 00 00
       -5.0109e-41 4.9946e-41 4.919e-41 5.0417e-41
000110 d4 88 00 80 f6 89 00 80 0b 8a 00 00 4e 8a 00 80
       -4.9085e-41 -4.9491e-41 4.952e-41 -4.9614e-41
000120 47 7f 0a bb 6e 2a 9e 39 f9 21 df 3a c8 88 3e 38
       -0.0021132992 0.0003016772 0.0017023674 4.5426917e-05
000130 96 88 28 3b 38 9d aa 3b 2c 1d db bb 2d 39 30 bb
       0.0025716177 0.00520673 -0.006686827 -0.0026889548
000140 6d 7e 5a 3a 66 c3 0e 97 40 17 26 17 c1 5b 74 17
       0.0008334879 -4.61293e-25 5.366684e-25 7.895646e-25
000150 82 f1 1a 97 ca bb e8 16 86 33 5a 97 59 ae d3 97
       -5.006491e-25 3.7600133e-25 -7.050463e-25 -1.3679567e-24
000160 d7 8a 9b 97 12 9a d2 16 47 85 a6 00 a4 8e 00 00
       -1.0051688e-24 3.4024562e-25 1.5292503e-38 5.117e-41
000170 6f 8b 00 80 5b 8a 00 00 e7 eb 9e 88 c9 8b 00 00
       -5.002e-41 4.9633e-41 -9.5647395e-34 5.0145e-41
000180 f3 1e 00 00 15 8a 00 80 dc 8c 00 80 75 77 b5 32
       1.1102e-41 -4.9534e-41 -5.0531e-41 2.1125496e-08
000190 8a 75 a4 32 ea 11 b5 32 9f bf e5 b1 6f b1 a9 b1
       1.9145563e-08 2.107932e-08 -6.686562e-09 -4.938719e-09
0001a0 1d 3c 95 32 9c eb c2 b2 f0 be b2 b1 b2 5c 07 b3
       1.737322e-08 -2.2691715e-08 -5.202189e-09 -3.1516443e-08
0001b0 d3 e0 14 bb ce 8f 98 ba 31 7c a3 3a a5 bb ed ba
       -0.0022717013 -0.0011639537 0.0012472925 -0.0018137587
0001c0 f8 7e b1 ba a3 73 1f 3b 8a a9 1f bc cb 7b d1 bb
       -0.0013541868 0.00243304 -0.009745011 -0.006392931
0001d0 5e c5 ca ba ac 8a 00 00 66 8d 00 00 d2 92 00 80
       -0.0015470197 4.9746e-41 5.0724e-41 -5.2669e-41
0001e0 f3 88 00 00 18 90 00 00 3c 8a 00 00 18 89 00 00
       4.9128e-41 5.1691e-41 4.9589e-41 4.918e-41
0001f0 38 89 00 80 96 07 00 9d e6 dd 0f ba 9a f5 ca 3a
       -4.9225e-41 -1.694458e-21 -0.00054880825 0.0015484572
000200 16 79 9e 3a 64 56 a7 3a 27 fb 5c 3b b5 4f 87 3b
       0.001209053 0.0012766835 0.0033719034 0.004129375
000210 21 ac 8a bb f1 a8 12 ba bb 51 a9 3a 4b 5b 29 9c
       -0.004231945 -0.0005594632 0.0012918034 -5.6035403e-22
000220 27 d5 76 1e 1a 54 ee 94 5b d9 98 9f 75 cd b2 9f
       1.30672104e-20 -2.4065031e-26 -6.473409e-20 -7.572583e-20
000230 0d 11 1d 1f d9 a1 96 9f f4 3f 09 a0 66 23 90 1f
       3.3260147e-20 -6.3795226e-20 -1.1625512e-19 6.1044934e-20
000240 29 89 00 80 be 8b 00 00 dd 89 00 00 68 8b 00 00
       -4.9204e-41 5.013e-41 4.9456e-41 5.001e-41
000250 f7 88 00 00 b7 8d 00 80 de 92 00 80 d3 ab 00 00
       4.9134e-41 -5.0838e-41 -5.2686e-41 6.1639e-41
000260 8a 46 01 00 d7 88 00 80 94 89 00 80 ee 8a 00 80
       1.1714e-40 -4.9089e-41 -4.9354e-41 -4.9839e-41
000270 7e 92 10 09 f9 d2 6a 80 02 8a 00 80 8c 96 00 80
       1.740225e-33 -9.810245e-39 -4.9508e-41 -5.4006e-41
000280 f9 8b 00 80 29 89 00 80 ab d1 17 3c f9 d1 03 3c
       -5.0213e-41 -4.9204e-41 0.009266297 0.008045667
000290 b8 bc 3a 3c 95 37 c7 3b 91 70 2f 3c 49 be 38 3c
       0.011397533 0.006079624 0.01070799 0.011275836
0002a0 1a 2c 1e 3c 31 25 ff 3b 5a aa 12 3c 44 66 f0 ba
       0.009654069 0.007786416 0.008951748 -0.0018341024
0002b0 f7 b7 e5 ba d3 5d 9d ba 56 e1 ed ba 28 8f b3 ba
       -0.0017526139 -0.0012006111 -0.001814882 -0.001369928
0002c0 e3 46 72 3a 6d e4 07 bc 79 11 e7 bb 4b 91 4c bb
       0.00092421303 -0.008294207 -0.0070516434 -0.003121453
0002d0 7f 8a 00 80 c1 89 00 00 f8 8a 00 80 77 a5 00 00
       -4.9683e-41 4.9417e-41 -4.9853e-41 5.9358e-41
0002e0 65 89 00 80 db 8a 00 80 0b 8a 00 80 f8 88 00 00
       -4.9288e-41 -4.9812e-41 -4.952e-41 4.9135e-41
0002f0 71 89 00 80 f6 be 3c bb d1 80 97 ba 12 4d b4 b8
       -4.9305e-41 -0.0028800345 -0.0011558776 -8.597424e-05
000300 c2 a7 27 bb 08 e2 45 ba 2b 0d e4 3a ca c2 13 bc
       -0.002558217 -0.0007548635 0.0017398944 -0.009018609
000310 bb 57 b4 bb fa b8 13 bb 41 ce 08 bb 54 a9 f0 ba
       -0.0055036223 -0.0022540675 -0.002087489 -0.0018361011
000320 da 93 84 39 27 a4 5a b9 ec 41 d0 3a 96 8a 5a 3b
       0.0002528716 -0.00020851252 0.0015888787 0.0033346764
000330 8e cc c1 bb ea 86 16 bb ed 04 72 b9 49 d4 87 3c
       -0.0059142774 -0.0022968599 -0.00023080753 0.016580718
000340 bb 0b 94 3c 9f a4 85 3c 91 09 6e 3c 38 fe 8b 3c
       0.018072 0.016313849 0.014528648 0.017088994
000350 a0 d7 74 3c 89 78 4a 3c 89 30 7b 3c e1 dc 66 3c
       0.014943987 0.012357839 0.015331396 0.014090748
000360 b8 e3 f9 ba 67 71 47 ba 44 d0 86 3b d5 9d e3 ba
       -0.0019065058 -0.0007608146 0.0041141827 -0.0017365763
000370 84 a7 dd b9 5d ab 31 3b f7 aa 18 bc 6a ca c4 bb
       -0.00042277214 0.0027110197 -0.009318105 -0.006005575
000380 78 41 05 bb 57 d2 89 3b 69 2d 32 3b ca b9 b4 bb
       -0.0020333212 0.0042059827 0.002718771 -0.005515312
000390 1c 21 7d 3b 93 fe 84 3b 5c 4c d4 ba 33 7a 46 3b
       0.003862447 0.004058668 -0.0016197073 0.0030285239
0003a0 10 9c ad 3b 6a f7 ab ba 88 b4 7d 3b 91 a0 c5 3b
       0.005298145 -0.001312 0.0038712341 0.006031104
0003b0 a1 e4 dc 3b 5b 09 96 3b 54 00 d6 3b 24 a5 ff 3b
       0.006741122 0.004578752 0.006530801 0.0078016687
0003c0 51 81 e4 b9 29 72 2b 3b dc 5d 7e 3b e4 4f 29 bb
       -0.00043583897 0.0026160574 0.0038813269 -0.0025834972
0003d0 d0 43 13 bb ef ff 0d 39 c0 49 d4 3a ee 57 a9 3a
       -0.002247084 0.0001354215 0.0016196296 0.0012919882
0003e0 ad 36 a4 3b 5c a0 69 bb f2 c6 3f bb 44 d5 ff 3a
       0.0050114007 -0.003564856 -0.0029262868 0.0019518514
0003f0 bc 23 28 3a f4 05 8e b9 b3 7c a9 ba 7d 55 9e 39
       0.0006414016 -0.00027088786 -0.001293084 0.00030199802

e_conv5.bias f4 [32]
000000 52 42 98 3c 2d f5 f5 3c ad 3d c7 3c 3b ef 69 9d
       0.018586311 0.030024135 0.024321401 -3.0960972e-21
000010 46 74 ee 3c 91 db d9 b5 d9 7f c6 3c c6 64 0e 3c
       0.029108178 -1.6231662e-06 0.024230884 0.008691018
000020 fb 13 96 b9 d8 93 9e 3c 67 fb fc 3c 09 ca 7e 3c
       -0.00028625116 0.019357607 0.030881597 0.015551099
000030 0f c2 a6 b9 7b 0c 77 3b 3d cb 18 3d 6c 2d c2 bb
       -0.00031806572 0.0037696648 0.037303198 -0.005925825
000040 60 8f 8a 91 e5 3b ac b3 32 db 28 3c 5d 05 1a 3d
       -2.1860923e-28 -8.020269e-08 0.0103061665 0.03760277
000050 61 c3 92 3c 87 51 e6 3c 60 4f f1 3c e0 46 25 3b
       0.01791543 0.028115047 0.029456794 0.0025219247
000060 fc 1a 77 3c 5c 4a 21 3d a7 5d 7e 3c b9 48 83 ab
       0.015082117 0.039377555 0.015525258 -9.328294e-13
000070 39 8e 85 bc dc 26 ba a3 7e de 8c bc 22 b1 06 ba
       -0.016303169 -2.0182618e-17 -0.017195936 -0.0005138089

e_conv6.weight f4 [32, 64, 3, 3]
000000 64 cc af ab f0 5d 59 ab db d1 85 ab 13 0f 5f ab
       -1.2491228e-12 -7.722425e-13 -9.508465e-13 -7.9246435e-13
000010 0c fb 15 ab 6a a3 42 ab 84 93 11 ab 81 cd 31 ab
       -5.328383e-13 -6.914943e-13 -5.171907e-13 -6.3168226e-13
000020 84 78 c7 2c e0 89 00 00 e4 8d 00 80 e8 8b 00 00
       5.6693e-12 4.946e-41 -5.0901e-41 5.0189e-41
000030 ea 8a 00 80 85 89 00 80 85 ef ac 0a 88 8a 00 00
       -4.9833e-41 -4.9333e-41 1.6653095e-32 4.9696e-41
000040 a0 89 00 80 ba 89 00 00 e4 83 cf a1 a9 de df a1
       -4.937e-41 4.9407e-41 -1.4061777e-18 -1.5170005e-18
000050 9c b5 30 a2 3b f2 d7 a0 3c fc 58 a0 ac ce 16 a1
       -2.394859e-18 -3.6582711e-19 -1.8379369e-19 -5.1095505e-19
000060 62 6a 1c a1 15 e1 2d a0 f2 77 0b a2 7b 89 00 80
       -5.299565e-19 -1.4728143e-19 -1.8901511e-18 -4.9319e-41
000070 c7 90 00 00 fb 88 00 00 c2 89 00 80 75 89 00 80
       5.1936e-41 4.914e-41 -4.9418e-41 -4.931e-41
000080 c8 89 00 80 c3 88 00 00 87 8a 00 00 de 8a 00 00
       -4.9427e-41 4.9061e-41 4.9694e-41 4.9816e-41
000090 cc 3e 8c a3 5b 46 9f a3 57 e9 0d a4 c8 42 08 a3
       -1.5205426e-17 -1.7268611e-17 -3.0772148e-17 -7.386716e-18
0000a0 55 07 ef a2 7b f5 68 a3 5d a1 da a2 7c e8 be a2
       -6.4788843e-18 -1.2628728e-17 -5.925987e-18 -5.1745756e-18
0000b0 7b d3 d9 a5 2f ea e6 b1 e8 c5 b1 b1 6a 7a c2 b1
       -3.7786804e-16 -6.7205046e-09 -5.1738773e-09 -5.66006e-09
0000c0 5a 55 9b b1 f6 d7 c6 b1 63 12 db b1 51 66 c3 b1
       -4.520797e-09 -5.7871103e-09 -6.375829e-09 -5.686879e-09
0000d0 71 36 c1 b1 29 7f e8 b1 e9 89 00 00 02 8a 00 00
       -5.6232285e-09 -6.766545e-09 4.9473e-41 4.9508e-41
0000e0 d4 88 00 00 c9 88 00 00 71 89 00 00 1c 18 35 82
       4.9085e-41 4.9069e-41 4.9305e-41 -1.3304699e-37
0000f0 6c 8a 00 00 96 87 4f 00 0e 8a 00 80 d0 88 00 80
       4.9656e-41 7.303643e-39 -4.9525e-41 -4.9079e-41
000100 be 8b 00 80 a9 8a 00 00 4b 89 00 00 58 8a 00 00
       -5.013e-41 4.9742e-41 4.9251e-41 4.9628e-41
000110 c2 8a 00 80 50 8a 00 00 51 8f 00 80 55 9a 00 00
       -4.9777e-41 4.9617e-41 -5.1412e-41 5.5364e-41
000120 de 1e fa a4 9e dd b3 a4 f1 a0 1d a7 08 c5 86 a7
       -1.0847251e-16 -7.800431e-17 -2.1875373e-15 -3.7406093e-15
000130 2d 1a 6d a4 09 58 b4 a4 91 47 9e a4 64 f2 97 a4
       -5.1413355e-17 -7.8211694e-17 -6.8642816e-17 -6.589644e-17
000140 d5 c9 4d a6 b4 8b 00 00 61 89 00 80 29 8a 00 00
       -7.1397196e-16 5.0116e-41 -4.9282e-41 4.9563e-41
000150 0a 8a 00 80 28 8a 00 80 4c 89 00 00 59 8b 00 80
       -4.9519e-41 -4.9561e-41 4.9253e-41 -4.9989e-41
000160 66 89 00 80 ad 8a 00 00 1c b7 70 ad 1a c9 6c ad
       -4.9289e-41 4.9747e-41 -1.3683079e-11 -1.34597e-11
000170 cc 4d 89 ad b3 87 0c 2f 31 f7 a4 ad 02 d8 dc ad
       -1.5609646e-11 1.2781136e-10 -1.8754416e-11 -2.5107031e-11
000180 0e 0a 74 ad f9 41 e7 ad 47 6b 8e ad ce 6a ae af
       -1.3872027e-11 -2.6290957e-11 -1.6191172e-11 -3.1726305e-10
000190 38 e0 a7 af e5 c4 d3 af 67 2b bd af 01 7c 81 af
       -3.053644e-10 -3.8520578e-10 -3.440974e-10 -2.3553073e-10
0001a0 98 25 a2 af 25 db 8b b0 ee 95 62 af 9e 61 b9 af
       -2.949434e-10 -1.0175866e-09 -2.0607846e-10 -3.3720665e-10
0001b0 30 d6 3a a2 e0 f3 85 a2 5e 3d eb a2 98 46 c4 a1
       -2.532109e-18 -3.6307935e-18 -6.3761853e-18 -1.3300163e-18
0001c0 c1 d2 5c a2 72 b1 a7 a2 55 06 b4 a1 f0 09 0c a2
       -2.9927132e-18 -4.545332e-18 -1.219895e-18 -1.8978799e-18
0001d0 fc a3 3c a2 8c 23 cd aa a9 39 f9 aa ce 6b 09 ab
       -2.5565564e-18 -3.643998e-13 -4.4271295e-13 -4.8821786e-13
0001e0 05 b3 b7 aa a3 b8 99 aa 66 6c 7e 2e 2b ae 59 aa
       -3.263155e-13 -2.7306377e-13 5.784919e-11 -1.9333898e-13
0001f0 42 5b 9a aa d9 46 91 aa 49 7b 32 a9 e1 43 33 a9
       -2.7419218e-13 -2.5806335e-13 -3.9630873e-14 -3.980486e-14
000200 81 87 b7 a9 ae 1a 75 ab b2 dc 11 a9 4a 1d 23 a9
       -8.150339e-14 -8.707851e-13 -3.238789e-14 -3.6218675e-14
000210 2f 68 de a9 f3 8f 2d a9 5f 4a 11 aa ff 51 80 a7
       -9.8768534e-14 -3.8538573e-14 -1.290439e-13 -3.5616037e-15
000220 99 93 34 a5 6f 5d 9c a5 76 2b 14 a5 a4 83 9c a5
       -1.5662519e-16 -2.7125e-16 -1.2851679e-16 -2.715089e-16
000230 db d5 1d a6 a8 22 01 a5 09 87 ea a4 13 c7 2f a5
       -5.4760145e-16 -1.1200708e-16 -1.0171008e-16 -1.524628e-16
000240 40 74 20 a4 46 64 3e a4 b7 04 41 a4 04 e8 8d a3
       -3.4792937e-17 -4.1284617e-17 -4.1854197e-17 -1.5385513e-17
000250 4f 9b f6 a5 28 f8 2a a4 89 e8 5d a3 2b d4 73 a8
       -4.277944e-16 -3.707307e-17 -1.2029675e-17 -1.3535216e-14
000260 1d f1 60 28 f1 8b cc ab 2b 77 18 ab 87 8e 67 ab
       1.2486781e-14 -1.4533913e-12 -5.4166627e-13 -8.226548e-13
000270 54 ca 0d ab 21 ab 36 ad cd 7e 3d ab cb ab be aa
       -5.037405e-13 -1.03835005e-11 -6.732226e-13 -3.3869985e-13
000280 d7 d3 04 ab 02 43 19 ab b5 89 00 00 bf 88 00 00
       -4.718981e-13 -5.444951e-13 4.94e-41 4.9055e-41
000290 ba 88 00 80 1f 8a 00 00 bc 89 00 80 d4 89 00 80
       -4.9048e-41 4.9549e-41 -4.941e-41 -4.9443e-41
0002a0 4f 9f 00 00 34 8c 00 00 08 89 00 80 53 94 00 00
       5.7149e-41 5.0295e-41 -4.9158e-41 5.3209e-41
0002b0 45 99 00 80 99 46 6b 9e 15 8d 00 80 2e f0 1f 08
       -5.4983e-41 -1.2455396e-20 -5.061e-41 4.812965e-34
0002c0 f0 88 00 80 ef 89 00 80 21 63 0c 26 fc 89 00 00
       -4.9124e-41 -4.9481e-41 4.87066e-16 4.95e-41
0002d0 bc 7e 0c af 30 f9 36 af 08 d5 10 af 84 c2 23 af
       -1.2777951e-10 -1.6641333e-10 -1.3172408e-10 -1.489387e-10
0002e0 8d 47 0b af 98 8d 08 af 60 78 e7 ae 37 5d 11 af
       -1.2667396e-10 -1.2419432e-10 -1.0526047e-10 -1.322079e-10
0002f0 49 39 f9 ae d0 96 5a 19 78 8a 00 00 26 3c 00 00
       -1.1333385e-10 1.1300792e-23 4.9673e-41 2.1577e-41
000300 98 8a 00 00 48 8b 00 80 bf 89 00 00 90 8a 00 00
       4.9718e-41 -4.9965e-41 4.9414e-41 4.9707e-41
000310 05 90 00 00 d1 88 00 80 c3 1a c5 b4 31 60 b5 b4
       5.1664e-41 -4.908e-41 -3.671358e-07 -3.3783866e-07
000320 9f a4 ea b4 99 1f a3 b4 f2 ae a1 b4 70 d2 c2 b4
       -4.3705674e-07 -3.0384106e-07 -3.0115876e-07 -3.628843e-07
000330 98 ca ab b4 d4 2f a8 b4 14 2a d8 b4 79 8c 00 00
       -3.1998638e-07 -3.1327238e-07 -4.026375e-07 5.0392e-41
000340 0a 89 00 00 2d 38 96 8a f4 97 00 00 ad 9a 00 00
       4.916e-41 -1.4465606e-32 5.451e-41 5.5487e-41
000350 90 89 00 80 f9 8b 00 00 c6 89 00 80 32 89 00 80
       -4.9348e-41 5.0213e-41 -4.9424e-41 -4.9216e-41
000360 75 89 00 80 75 8a 00 00 0f 89 00 00 8e 8a 00 80
       -4.931e-41 4.9669e-41 4.9167e-41 -4.9704e-41
000370 e3 8c 00 80 d9 88 00 00 44 89 00 00 83 98 00 80
       -5.054e-41 4.9092e-41 4.9242e-41 -5.4711e-41
000380 78 0c 00 00 94 40 9d af 5b df 82 af 43 de 60 b0
       4.473e-42 -2.860402e-10 -2.3805566e-10 -8.180658e-10
000390 45 b0 77 af f4 23 99 af af 1d af af 23 8a 8b af
       -2.2527143e-10 -2.7856084e-10 -3.1853406e-10 -2.5382105e-10
0003a0 b5 e5 43 af ec fb 89 af 12 05 6a a4 c5 47 63 a4
       -1.7816755e-10 -2.5099156e-10 -5.0744956e-17 -4.928357e-17
0003b0 42 15 aa a4 f5 cf 01 a4 ba c4 e2 a3 d8 07 8a a6
       -7.376176e-17 -2.8148563e-17 -2.4586286e-17 -9.5778e-16
0003c0 25 db d8 a7 08 e0 b1 a3 41 ec 11 a4 78 d4 b6 9d
       -6.018964e-15 -1.928526e-17 -3.1641978e-17 -4.8394686e-21
0003d0 9d 26 ce 9c 13 b7 6e 9d ba 9a 55 9c e9 45 38 9e
       -1.3641918e-21 -3.1593685e-21 -7.067577e-22 -9.755336e-21
0003e0 51 6c 47 a8 23 7c ed 9b 03 64 0b 9c 81 5a 7a 9c
       -1.10702065e-14 -3.9288583e-22 -4.6120504e-22 -8.2835035e-22
0003f0 0d 2a ac ae 39 21 93 ae f7 76 9f ae 91 db db ae
       -7.829124e-11 -6.6906876e-11 -7.251615e-11 -9.99797e-11

e_conv6.bias f4 [32]
000000 bd 0f 64 ba 42 d5 1d 3d 0a ee 6b 3c fb 12 61 bc
       -0.0008699855 0.038533457 0.014400015 -0.013737435
000010 ee 64 13 3d 3b ab b2 b9 ab fe 05 bc c3 74 ff bb
       0.035984926 -0.00034078382 -0.008178393 -0.0077959015
000020 c6 0f 49 a4 b7 f9 1b 3c 26 79 1a bb 59 91 03 b2
       -4.3598288e-17 0.009519986 -0.0023570745 -7.658252e-09
000030 37 78 1b 3d 0a 53 c9 bb 25 c3 9e bc a5 d3 47 3d
       0.037956443 -0.006143932 -0.019380162 0.048785824
000040 c4 32 ab bc b6 17 9b 3b 9d 64 71 3c 46 9a e8 3c
       -0.02089823 0.004733051 0.014733461 0.028393876
000050 d7 1c df b1 6d 0c 2d bc 29 b8 6e 3c 71 e1 f1 bb
       -6.493433e-09 -0.010562045 0.014570274 -0.007381611
000060 3d ff f5 b9 cc b8 c4 3c 57 2d 95 ba 48 3b 91 3c
       -0.0004692021 0.0240139 -0.001138131 0.017728463
000070 8d c1 ad 3c 89 7f f6 3c 27 58 c3 bb 4b 3b 0b bb
       0.021210456 0.03009011 -0.0059614363 -0.0021245058
